pytorch_Started/model_train/tank2_10.pth (torch, 587527 bytes, 10 tensors)

weight f4 [32, 3, 5, 5]
000000 9a a3 72 bd eb 63 ae 3c 8d 43 ca bd dd 9f f0 bd
       -0.059238054 0.021287879 -0.098761655 -0.117492415
000010 ee d7 fd bd 31 43 10 3e 69 96 5d 3d 65 62 54 3d
       -0.12394701 0.14088131 0.05409852 0.05185165
000020 ac 5e f5 bd e6 ef 56 be 45 5c e2 3d a7 47 93 3d
       -0.11980948 -0.20989951 0.11052755 0.07191401
000030 1b b8 10 3e 7e ec 1e bc 20 bd 09 be 54 96 0a be
       0.1413273 -0.009699939 -0.13451052 -0.13533908
000040 d2 b4 23 bd 7a 68 d1 3d 5f 8c 31 bd ab da 2f bd
       -0.039967366 0.102250054 -0.04334676 -0.042933147
000050 7e 60 9f bd 2c 68 95 bd 71 99 bf 3c 5a 67 09 3d
       -0.07782076 -0.0729526 0.023388596 0.03354583
000060 f6 82 a6 3d 64 c0 ef 3d c4 84 27 3d a6 ad ce 3d
       0.081304476 0.117066175 0.0408981 0.100917146
000070 d2 b2 db bd a0 9e 1b be de ef 01 3e ad d8 fe 3d
       -0.10727467 -0.1519723 0.12689158 0.124436714
000080 ee 7b 95 bb 6f 8a 08 bd 80 20 d0 bd 7a 73 0d 3e
       -0.0045618927 -0.033335146 -0.10162449 0.13813582
000090 c4 6d 99 3d bd 10 71 3d d3 40 e8 3d 57 b4 fc 3c
       0.07491639 0.058853853 0.11340489 0.030847711
0000a0 9b 26 b0 3d 2b 8f f3 3c ce 9f c9 3d 05 79 05 3e
       0.086011134 0.029731354 0.098449335 0.13034447
0000b0 ef e4 ac 3d be a2 0b 3d 23 d9 9f 3d 02 d6 19 3e
       0.08442103 0.03409075 0.078050874 0.15023044
0000c0 b0 19 00 3e e9 03 db bd 0c 63 d3 bd 04 f4 7e 3d
       0.12509799 -0.10694105 -0.10321626 0.06224443
0000d0 94 bd 9d 3d c3 89 0f be 2b 01 48 be 77 d8 f7 3d
       0.07702175 -0.14017396 -0.19531696 0.12101834
0000e0 24 47 0a 3d b6 fc 9e 3d 71 72 b0 bd 22 b3 31 be
       0.03375925 0.077630445 -0.08615578 -0.1735349
0000f0 e8 75 70 bd 78 36 a3 bd 19 24 04 3e c8 01 06 be
       -0.058706194 -0.079693735 0.12904395 -0.13086617
000100 1c 5a 0f bd a7 89 b4 bd 6c 88 90 3d 23 64 e7 3d
       -0.034998044 -0.088153176 0.070572704 0.112983964
000110 a0 77 85 b8 6e e9 c9 bd 6a a3 1d be f7 96 56 bd
       -6.364216e-05 -0.09858976 -0.15394369 -0.052390065
000120 b8 f5 87 bd e8 e5 df 3c 27 32 45 bd e9 06 94 3d
       -0.06638664 0.027331308 -0.048143532 0.072278805
000130 ef 6b 4a 3d 74 9c 2d be 8c a8 c1 3c 99 0c fb 3d
       0.04941934 -0.16954213 0.02363994 0.12258262
000140 56 70 1a bd 16 81 a5 3d 3a eb 26 be 0c af e9 3d
       -0.03770479 0.08081262 -0.1630067 0.11410341
000150 46 89 7b 3b 5c 13 56 bd c6 89 d7 3b e3 a1 a2 bd
       0.0038381382 -0.052264556 0.006577703 -0.07941034
000160 76 6c 80 bd 06 59 c5 bd 31 39 0e bd 12 7a 21 3c
       -0.06270687 -0.096361205 -0.03472251 0.009855764
000170 09 d5 5f bd b3 a9 5a 3a 4e 20 c3 bd 9c 13 c8 3c
       -0.054646526 0.0008341327 -0.09527646 0.024423413
000180 d9 28 d7 3d c3 32 5d bd 09 a0 f0 3d c8 75 c1 bb
       0.10505838 -0.05400349 0.11749274 -0.005903933
000190 a2 a5 b6 bd b3 d1 2a bc 4b 45 49 bc 85 0c df 3d
       -0.08918311 -0.010425973 -0.012284587 0.1089106
0001a0 2a a3 0e 3d 63 99 c9 3d 2c 98 d6 bc 3d 35 1e be
       0.034823574 0.09843709 -0.026195608 -0.15449996
0001b0 f2 8b 46 3d 5c 87 23 3d ef 8b 15 3d 2f f2 55 bd
       0.048473306 0.03992401 0.036510404 -0.052232917
0001c0 96 3e 59 3d e2 76 80 3b 1f 13 a0 3d 7f 99 d5 3d
       0.053038202 0.003920422 0.07816147 0.10429668
0001d0 2c 55 ee bc d5 e8 0d 3e 5f 80 b8 3c 86 e1 59 3d
       -0.029093347 0.1385835 0.02252215 0.05319359
0001e0 7a be be bd ae 0c be 3d f6 fa 33 3e 63 6b 3c 3e
       -0.09313674 0.09279762 0.17576203 0.1840034
0001f0 04 eb 42 bd 44 c8 65 bd c1 ea 9a bd 21 f6 15 be
       -0.04758741 -0.05609919 -0.07564307 -0.14644672
000200 1c 7c fb 3d a5 4b a0 bd 7c 60 ad 3d 6a 08 b4 3d
       0.12279531 -0.07826928 0.084656686 0.08790667
000210 5d e1 1d be 73 81 2d bd 34 ec de bd ee e5 ae 3c
       -0.15418 -0.04235978 -0.10884896 0.021349873
000220 cd 23 0a 3d 76 f9 46 ba 05 5b 21 be 4a e5 5b bc
       0.03372555 -0.0007590273 -0.15757377 -0.013421366
000230 38 e4 b2 bd a8 e9 08 be 87 68 4a 3d f4 e6 00 bd
       -0.087349355 -0.13370383 0.04941609 -0.031470254
000240 d4 e7 23 be 60 8a 78 bd 5a 46 ea bd 49 af 67 3d
       -0.16006404 -0.06067884 -0.114392 0.05656365
000250 55 c6 0c bc b7 3b 41 3d 78 18 b6 3d f8 c3 c7 bc
       -0.008592208 0.04717609 0.08891386 -0.024385437
000260 fd e6 b2 bc 27 6b c6 bc 01 c1 a7 3d 6c 35 45 3c
       -0.02183866 -0.024221016 0.081911094 0.012036663
000270 d6 19 2e 3d e0 36 be 3d 9a 83 bb 3d 2c 40 ac 3c
       0.042505108 0.0928781 0.091559604 0.021026693
000280 68 cb 05 3e 54 0f 41 3e d4 32 00 bd c0 9a c8 bb
       0.13065875 0.18853503 -0.031298473 -0.0061219633
000290 b3 3f cb 3d bd b7 65 3d 1d 2f ce bd 89 18 ab 3d
       0.09924259 0.05608343 -0.1006758 0.08354289
0002a0 40 34 27 be 8c 7e ed bd a6 5c a2 bc 66 b2 bf bd
       -0.16328526 -0.115964025 -0.019819569 -0.09360199
0002b0 50 44 2a bd 2a e7 03 3d 72 f7 37 3d 65 b4 05 bd
       -0.041569054 0.032202877 0.044913717 -0.03264274
0002c0 98 47 0a be 63 3e d6 bd 7d 12 83 bd 82 bd ae bc
       -0.13503873 -0.10461118 -0.06400011 -0.021330599
0002d0 8e 2a 77 bd 96 8e 96 3d 03 2b e1 3d fe 1d 9e 3c
       -0.060343318 0.07351415 0.10994532 0.01930141
0002e0 be b7 72 3d 7f df 95 3d 10 5e ed 3d 46 fe cd 3d
       0.05925726 0.07318019 0.115902066 0.100582644
0002f0 29 2b f2 3d d2 0c b6 3d 38 3c 3d 3c a9 2e 71 3d
       0.118246384 0.08889164 0.011550002 0.05888239
000300 6b ef 0e bd cf 68 15 be 52 12 79 3d b8 5d ad 3c
       -0.034896296 -0.14590763 0.060808487 0.021162853
000310 49 a6 1a 3d aa f8 15 be 3f d2 cc 3c 9a b7 45 3d
       0.037756238 -0.14645639 0.025002597 0.0482708
000320 ac 88 b1 bd f0 71 a9 bd 52 23 f2 bc aa 01 5b bc
       -0.08668646 -0.08273685 -0.029557858 -0.013367096
000330 e2 61 fe bc 32 e7 7d bd 00 28 b3 bd 34 89 f2 bd
       -0.031052534 -0.061988063 -0.08747864 -0.11842576
000340 87 95 8e bd 35 33 ee b9 1a c4 3d bd 2d 51 12 3e
       -0.06962114 -0.0004543305 -0.046329595 0.14288779
000350 7a 5d ad 3d bf 53 f4 bd c2 48 cf 3d 22 f9 41 3c
       0.08465095 -0.11930036 0.10121299 0.011839183
000360 bd 56 a9 3d 41 25 d2 bd 0f 7d 10 be 98 2d 3d bd
       0.08268497 -0.10261012 -0.14110206 -0.04618606
000370 67 3e 98 3d 1e 54 cf bd 22 ce a7 bd d0 52 5f 3d
       0.07433777 -0.10123466 -0.081936136 0.054522336
000380 e6 fc 5f bd 1b 6c ab bc bc 80 8c bd 95 34 31 be
       -0.054684542 -0.020925572 -0.06860492 -0.17305215
000390 37 56 3a bd 0b f6 25 bd 09 22 75 bd 45 cf 1f be
       -0.045492377 -0.040517848 -0.05984691 -0.15606411
0003a0 40 64 31 be 90 1d 2d bd 1a 23 8b bd a1 c9 18 be
       -0.17323399 -0.04226452 -0.067938045 -0.14920665
0003b0 29 a3 19 be 01 39 cb 3c 2e c7 b6 bd 4b 3f e9 bb
       -0.15003647 0.024807455 -0.08924709 -0.007118141
0003c0 19 d4 38 be f6 b4 49 be 31 71 0c be ba e2 8e bd
       -0.18049659 -0.19697937 -0.13715054 -0.069768384
0003d0 78 e4 2b be c0 de 85 bc 62 dd 2f be de 72 f6 bd
       -0.16786373 -0.016341567 -0.17174295 -0.12033628
0003e0 9d fb d6 bd 95 46 2a 3b 7e ab 7a bd f0 31 b3 bc
       -0.1049721 0.0025982012 -0.061198704 -0.021874398
0003f0 7a ee e1 bd 8b 8a e5 3d 8f 58 72 bd 7d c3 82 3c
       -0.11031814 0.112080656 -0.059166487 0.015962357

bias f4 [32]
000000 25 41 01 bd 3e ab 4a 3e 95 76 b4 bd 52 29 78 3e
       -0.031556267 0.19791886 -0.0881168 0.24234512
000010 17 74 1c 3c 8d fb 02 3e 7a cf e6 bd 9d 2a cc bd
       0.009549162 0.12791272 -0.11270042 -0.09969065
000020 f5 05 04 be a1 ed 95 3d 69 f4 11 be cc 02 6f 3d
       -0.12892897 0.07320715 -0.14253391 0.058352277
000030 cb 28 2d be 38 e9 f8 bd 0a 73 66 bd f7 b0 fd bd
       -0.16910093 -0.12153858 -0.056262054 -0.12387269
000040 7a 73 9b 3d 89 ad 45 3e 4c 6f 29 be ee c2 12 bc
       0.07590385 0.1930448 -0.16546363 -0.008957608
000050 e5 ab 7a 3e b8 5e 88 3e 2f 28 ce bd 65 3e 43 3e
       0.24479635 0.26634765 -0.10066258 0.1906677
000060 bd 20 5a be 1b eb db bd e4 89 8f be e7 2d 4f be
       -0.21301551 -0.10738202 -0.2803489 -0.20232354
000070 11 8d 91 be 07 31 4a be e1 6c be bd fd ba 81 3e
       -0.28427938 -0.19745265 -0.09298111 0.25337973

weight f4 [32, 32, 5, 5]
000000 41 84 72 3c b8 49 36 bc b9 20 8b 3c 7c 64 fb bc
       0.01480204 -0.011125974 0.016983377 -0.030687563
000010 39 6a 06 bc 02 b1 2b bc 81 dc 81 bc e7 59 38 bd
       -0.008204036 -0.010479214 -0.015852215 -0.045007613
000020 9a 8e ba ba 0b 60 b4 bc 7f 3e 31 bd 04 ac 18 bc
       -0.0014233172 -0.022018453 -0.04327249 -0.0093183555
000030 f6 37 2f bd 1c 85 25 bd e8 72 26 bd be 71 8d 3b
       -0.042777978 -0.040410146 -0.040636927 0.0043165376
000040 db 01 bb bc a0 4a 1b bd b0 ca 1a bd 0c f1 15 3c
       -0.022828033 -0.037912965 -0.037790954 0.009151708
000050 d6 53 94 bc b7 a1 8b bc af c9 da bc a0 0a 81 bc
       -0.018106382 -0.017044885 -0.026707498 -0.015752137
000060 db f9 06 bd 06 a1 13 bd 23 3c 50 3b ca cc 67 3b
       -0.032953124 -0.036042236 0.0031774126 0.0035369867
000070 75 de f8 bc b8 b4 89 3c dd 92 8f 3b d9 c6 91 3c
       -0.030379513 0.016809806 0.004381521 0.017795013
000080 36 29 37 3c f8 7d b1 bc 08 53 2a bd ad f1 ad 3c
       0.011179259 -0.021666512 -0.04158309 0.021233404
000090 49 a0 b5 3c 26 23 bb bc e2 1f 1c bd d8 cf 3d bc
       0.022171156 -0.022843909 -0.038116343 -0.011585198
0000a0 84 96 46 bc 41 7b 60 bc 97 b6 d6 3b 1e 6b 68 3c
       -0.012120847 -0.013701261 0.006552528 0.014185695
0000b0 62 ca a9 3c 7e ea a1 bc e9 c9 f0 3c f4 f9 54 3c
       0.020726386 -0.019765135 0.029393153 0.012999047
0000c0 bf 6e 4e 3c a2 32 da 3b b5 b3 a4 bc be 90 6c 3c
       0.012599646 0.006658868 -0.020105222 0.014438806
0000d0 d3 1e 06 3c 97 ae 16 3c e9 4a 27 bd cf b9 89 3c
       0.00818606 0.009196899 -0.040842924 0.016812233
0000e0 ae 34 a0 3c 5d c8 d2 bc 17 cd b5 3c 9e 48 1b bd
       0.01955637 -0.025730306 0.022192521 -0.03791105
0000f0 0e 43 b7 bc 56 b4 f0 bc 13 e4 9e 3c 13 cd 9c bc
       -0.022370841 -0.029382866 0.019395864 -0.019140756
000100 15 d9 d6 bb 0d 22 0f bd c5 49 df 3c ea 1f 0c bd
       -0.00655664 -0.034944583 0.027256856 -0.034210123
000110 5b a3 b7 3b 84 fc 94 3c 15 37 1c bb 97 36 c0 bc
       0.0056041903 0.018186815 -0.0023836542 -0.02346353
000120 5c e1 81 bb b6 60 77 3c 42 7f 98 bb 5d 2e 8b 3c
       -0.0039636325 0.015098741 -0.004653842 0.016989881
000130 90 39 4e 3b 00 f7 c3 bc 64 62 3a 3c 33 5c e0 bc
       0.0031467415 -0.02392149 0.011375997 -0.027387714
000140 55 a8 b7 bc f3 a4 0b bd 92 ff af bb 90 a0 d6 bc
       -0.022419134 -0.034092855 -0.0053710425 -0.026199609
000150 60 b3 3d 3c 6c 76 4f bc 86 fe 1a bd 53 13 dd bc
       0.011578411 -0.012662511 -0.03784039 -0.026986754
000160 88 9b ab bb 39 15 c2 3b ec 16 8c bc a2 34 e5 bb
       -0.0052370466 0.00592294 -0.017100774 -0.0069947997
000170 01 95 4c bd ec f9 f3 bc aa f6 37 3c d3 67 8f bc
       -0.04994679 -0.029782258 0.011228243 -0.017505562
000180 bd 75 65 bc ea ae 88 bc b3 f6 73 bb 5c 46 e4 bc
       -0.014005122 -0.016684968 -0.0037225902 -0.027865581
000190 fa 2e 48 3c 08 3c d7 3c 5d 8c 4f bc d3 77 dd 3b
       0.012218231 0.026273742 -0.012667743 0.006758669
0001a0 ef 88 8e 3c 95 ec 04 bc 86 24 ec 3c e1 78 2d bd
       0.01739928 -0.008113046 0.02882601 -0.042351607
0001b0 a3 4f af b9 e4 9d d7 3b bd a9 24 ba 35 45 f9 bc
       -0.00033437935 0.0065801013 -0.00062813965 -0.030428508
0001c0 b5 b0 91 3c a7 1d 2d 3c af d7 e1 3b 1a 73 a5 3c
       0.017784456 0.010566152 0.0068921666 0.020196486
0001d0 30 39 21 3d 88 0b 55 3b ba db 2d 3c 2f 01 18 bd
       0.03936118 0.0032508094 0.010611469 -0.037110504
0001e0 d0 08 08 bc 67 3e 4e 3b f1 c0 10 bc a3 b8 60 3c
       -0.008302882 0.00314703 -0.008835063 0.013715896
0001f0 c5 f7 20 3c 02 9a 10 3d 42 78 24 ba 24 3d a8 3b
       0.009824698 0.035303123 -0.00062740233 0.0051342417
000200 79 60 fc 38 59 1a d1 3b 70 4a 2f 3d 9d 7d 95 3c
       0.00012034266 0.0063813147 0.0427956 0.018248374
000210 59 43 d6 bc 10 22 40 3c 06 6c c4 bc 28 9e 83 3b
       -0.02615516 0.011726871 -0.02397729 0.0040166564
000220 bf 37 2a bc b4 7e 93 3c e5 f3 24 3d 7d e3 91 bc
       -0.0103892675 0.018004753 0.04027166 -0.01780867
000230 32 1c 60 3d f3 c3 54 bb c8 fe 9d 3b 94 9b 26 3d
       0.05471439 -0.0032465428 0.004821632 0.040675715
000240 b2 a9 34 bc 24 2c bd 3c 80 68 45 3c 0b 02 ec bc
       -0.011026787 0.023092337 0.0120488405 -0.028809568
000250 fd 1c cb bc b7 fc db 3c 1e 2f 08 bd a1 c8 30 3b
       -0.024794096 0.026853902 -0.03324806 0.0026975053
000260 d8 97 db bc d2 a7 e4 3a b5 90 25 3c 7a e0 ea bc
       -0.026805803 0.0017445034 0.010105302 -0.028671492
000270 cb 96 cc bc fd d2 a5 bc 38 f3 d8 3b 5c 6f 1a bd
       -0.024974247 -0.020242209 0.006620791 -0.037703857
000280 17 e0 97 bb 57 64 64 bd 62 35 c8 3b b5 d0 b9 3b
       -0.004634868 -0.055759754 0.0061098794 0.005670632
000290 54 80 68 3c 5c ed 17 bd af 9a 9d bc 8f 0c bb bc
       0.014190752 -0.037091598 -0.019238798 -0.022833137
0002a0 71 c2 14 bc f3 d9 8e bc e5 dc cf bc d9 d0 b0 bb
       -0.009079562 -0.01743791 -0.025373885 -0.0053959903
0002b0 01 2c b3 bc 4f f1 ab 3c 09 07 2d bc b3 2e ce bc
       -0.021871569 0.020989088 -0.010560759 -0.025168752
0002c0 7c e7 d8 bb d6 c4 0c bd 6d 2d 98 3a 74 2a 8a 3a
       -0.006619392 -0.034367405 0.0011610218 0.0010541216
0002d0 2f 48 32 bd 27 ee ae bc 55 75 4b bd 6a 9e 5b bd
       -0.04352587 -0.021353794 -0.049672443 -0.053617872
0002e0 87 ca 68 b9 6e 6f 18 bd b0 a0 02 bd 62 8c 7d bd
       -0.00022200691 -0.037215643 -0.031891525 -0.061901458
0002f0 0a 68 64 bd 62 fd c7 bc 9d 76 d4 bc 4d 79 3d bd
       -0.055763282 -0.024412815 -0.025935465 -0.04625826
000300 6c 1e 4a bb 98 ed b7 bc 95 1a 5e 3b 4f 11 c4 bc
       -0.0030840887 -0.02245216 0.0033890356 -0.023934035
000310 9c df 7b 3c b4 0b 0d bd 90 39 c1 3c 17 f0 e7 bc
       0.015373137 -0.03443499 0.023587018 -0.028312726
000320 40 d2 82 bc 88 53 22 bc b5 22 13 bd 44 dc f7 bc
       -0.015969396 -0.009907611 -0.03592177 -0.030256398
000330 b0 d5 c1 bc 3c af d1 bc 79 cd 73 bc c1 a8 2f bd
       -0.023661464 -0.025596254 -0.0148805315 -0.042885546
000340 e0 63 47 3c 21 83 00 bd cc 89 2e 3c c8 89 44 bd
       0.012169808 -0.031375054 0.0106529705 -0.04798296
000350 9d 40 11 bd 13 37 18 bc 25 6b 34 bd f8 43 09 bc
       -0.03546201 -0.0092904745 -0.044047493 -0.008378021
000360 71 39 ec bc 86 57 90 bc d8 05 86 3c 5f 87 f6 b7
       -0.028835984 -0.01761986 0.016360208 -2.9388522e-05
000370 e1 91 3e bd 52 f5 25 bd 58 17 62 bb 64 2c 15 bd
       -0.04652584 -0.04051716 -0.0034498777 -0.036419287
000380 6d 5e a9 3b 91 c5 66 3b 4d 1b 49 bd 49 9a 52 bc
       0.005168727 0.0035212974 -0.0490983 -0.012854167
000390 45 c8 bd bc 59 e4 f9 bc 4b ea bb bc 0e 7f 1e bd
       -0.023166785 -0.030504392 -0.022938868 -0.038695388
0003a0 d5 7d a3 3c 3c 1a 9b 3b e8 7a b7 bc 7d 45 d5 bc
       0.019957462 0.004733352 -0.022397473 -0.026034111
0003b0 65 04 37 bd 0e f9 0a bd 40 27 02 bd cb 97 12 bc
       -0.044681925 -0.033928923 -0.031775713 -0.008947323
0003c0 62 af 1a bd 4a af 66 3c cb c1 a1 bc 39 ae a5 3c
       -0.037764914 0.014079878 -0.019745728 0.020224677
0003d0 57 3b 07 bc 9d 08 8f 38 ac 0c a6 3c 55 6d cf ba
       -0.008253894 6.820376e-05 0.020269714 -0.001582543
0003e0 ea f3 80 3c 88 09 7a bc 11 16 80 bc 66 53 6f bc
       0.015741307 -0.0152610615 -0.015635522 -0.014607286
0003f0 31 35 ad 3c d1 45 97 bb 65 15 ed 3c 97 8f b7 3c
       0.021143528 -0.004616477 0.028940866 0.022407336

bias f4 [32]
000000 ae 3a 83 bb 0e 8b 5a 3c d5 51 48 bd 6e 04 42 bc
       -0.004004798 0.013338817 -0.048906166 -0.011841876
000010 e0 3e 34 bd f5 9d f4 3c 0f 14 69 3d 6c 6d d5 bc
       -0.044005275 0.029860476 0.056903895 -0.026053153
000020 3a c8 90 bd a9 be 60 3d fd 55 10 bd f3 6c 7a bd
       -0.0706944 0.054869328 -0.035238255 -0.06113906
000030 ae 7a c0 bd 6d a0 74 bd 77 f9 3c 3d bb ea c2 bd
       -0.09398399 -0.059723306 0.046136346 -0.095174275
000040 1d 1b 39 bd 58 79 48 bd 26 83 c0 3c 58 d2 84 3b
       -0.045191873 -0.048943847 0.023500036 0.0040533952
000050 8a 21 f8 3c d0 bb 45 3c b6 4a 5a bd da 47 d8 bc
       0.03028943 0.012068704 -0.053293906 -0.026401449
000060 e6 c1 04 bd 0f 18 c2 bd 50 55 ed bc f0 89 bd 3b
       -0.03241148 -0.09477245 -0.028971344 0.0057842657
000070 26 49 9f bd 90 79 98 bd ff bd 7c 3c 42 99 7f 3c
       -0.07777624 -0.07445061 0.015426158 0.015600504

weight f4 [64, 32, 5, 5]
000000 13 7d 35 3d ad 6c 3f 3b 53 14 27 3c dc 34 ef 3c
       0.044308733 0.0029209063 0.010197717 0.02920001
000010 1b d3 ac bb 89 b8 1f 3d 05 80 4d 3d e2 52 9f bb
       -0.005274189 0.038994346 0.050170917 -0.0048621753
000020 d0 7c f5 bc 38 79 ee bc 99 26 21 3d f1 7e 6a 3c
       -0.029966742 -0.029110536 0.03934345 0.014312492
000030 e0 cb 64 bc 9e 39 89 bc 9f 8f e0 3c 5f 79 f8 bb
       -0.013964623 -0.016751107 0.027412234 -0.007582828
000040 fc 42 11 3d ac d2 83 39 2e 02 a3 bc 18 f1 52 3c
       0.035464272 0.0002514323 -0.0198985 0.012874864
000050 5f 98 0f bd 35 22 5f 3c 33 e2 77 3c 66 f6 44 bd
       -0.03505742 0.013618995 0.015129614 -0.048086546
000060 4b f4 e7 3b 90 4e 17 3d d4 fd 11 3d cc 51 4d bc
       0.0070786825 0.036940157 0.03564246 -0.012531709
000070 bb eb 13 bd 48 a7 c1 3c 0b 8b 52 3d 4e 06 42 3d
       -0.036113482 0.023639336 0.051402133 0.047369294
000080 b5 3d 1d 3d 0b f4 b9 bc f4 0e 6a bb 54 51 99 3c
       0.038388927 -0.022699377 -0.003571448 0.018715538
000090 a6 fc ac 3c a3 0d 31 3c 57 de 52 ba 21 5f ec 3c
       0.021116566 0.010806474 -0.00080439955 0.028853955
0000a0 6f 28 27 bd 8a 61 55 bb 77 14 dd bc d9 09 69 3c
       -0.040810045 -0.0032559359 -0.026987297 0.014223539
0000b0 22 c2 38 bc d8 18 33 3a cd b1 03 3c 5f 10 82 3b
       -0.011276754 0.000683201 0.0080379965 0.0039692367
0000c0 6c 3c 1b bd 55 8c 05 bd 46 61 49 bc 80 d9 16 bc
       -0.03789942 -0.032604534 -0.012291258 -0.0092071295
0000d0 80 1c b5 3a bf e9 82 3b db 4b 08 bd a4 55 44 bd
       0.0013817698 0.00399515 -0.033275466 -0.047933236
0000e0 e0 a0 0b bd ff 40 f3 bb ef 64 31 3b 3a 81 43 bc
       -0.03408897 -0.0074235196 0.0027068218 -0.0119326655
0000f0 4f f5 5b 3b a2 ff 02 bd fb 27 2b bb 77 4c 13 3d
       0.0033562963 -0.03198207 -0.002611636 0.035961594
000100 34 27 93 3c dd 31 ad 3b 1f 45 11 bd 36 6e f3 bc
       0.01796303 0.005285485 -0.03546631 -0.029715639
000110 43 83 8a 3c af 81 e9 3c 8f 6b a0 bc 5f 78 59 3c
       0.016908294 0.02850422 -0.019582538 0.013273328
000120 dd c6 43 3d 29 8e 4c 3c 93 ed 0b bc 25 50 bd bc
       0.047797073 0.0124850655 -0.008540529 -0.023109505
000130 d4 76 7b bd 39 13 c2 bc dd 98 76 3c 00 43 97 bc
       -0.06139262 -0.023690807 0.015051094 -0.018464565
000140 cc f5 f8 bc 75 a3 a5 bd 23 48 04 bd 3b 33 d4 3c
       -0.030390643 -0.080878176 -0.032295357 0.025903335
000150 c8 c4 87 3c 9f 3c cb 3c 43 0a 44 bd fc 30 91 bc
       0.016573325 0.02480918 -0.04786135 -0.017723553
000160 3c 93 71 bc 92 28 b4 3c d6 5a e1 bc 74 b3 53 bd
       -0.014744576 0.021992002 -0.027509134 -0.05168481
000170 10 46 1e bd 08 38 a3 bc cf cb 84 ba 95 9b 08 ba
       -0.038641036 -0.019924179 -0.001013154 -0.0005211172
000180 d1 97 57 bd 00 8b 08 bd fb 0f 1e bd 6d bf 49 bb
       -0.052635018 -0.033335686 -0.03858946 -0.0030784265
000190 d1 c3 1d 3d 72 a9 db bc a5 ee 41 bc 1a 19 f9 3c
       0.038516823 -0.026814196 -0.011836682 0.030407477
0001a0 e4 e2 4e bb 87 86 2c bc 45 fc 68 3c 61 80 02 bc
       -0.0031568343 -0.010530121 0.014220302 -0.007965178
0001b0 25 da 9e bc 6b 2a ce bc 01 d4 93 3c 08 a5 be bc
       -0.019391129 -0.02516671 0.018045427 -0.023272052
0001c0 f7 39 90 3c 64 a0 29 3c cb e3 af 3c c9 08 af bb
       0.017605765 0.0103531815 0.021470925 -0.0053416234
0001d0 cd 69 c9 bc c9 7f 5e 3c 3d 52 3e 3d ab bd 97 bc
       -0.024586583 0.013580271 0.046465147 -0.018523058
0001e0 08 25 d8 3c 98 6d 16 3d 7a 3b e2 bc 51 07 9d 3c
       0.026384845 0.03672561 -0.027616251 0.019168528
0001f0 64 bf 62 3c 20 bb f6 bc c6 02 6a ba 98 4b 90 bc
       0.013839576 -0.030118525 -0.0008926805 -0.01761417
000200 71 96 8b bc ba f0 12 bc 3a 7d e5 3c 8a ee 9b bb
       -0.01703951 -0.0089685265 0.028013814 -0.0047586607
000210 b9 f5 30 3a 13 7e cc bc 06 8e e5 bc 72 27 79 3d
       0.0006750483 -0.02496246 -0.028021824 0.060828634
000220 a4 b4 95 3c 7d 18 31 3c aa 24 fe 3b bf 33 26 3d
       0.018274613 0.010809061 0.0077558355 0.040576693
000230 75 f0 85 3d fd 18 1f 3d a1 87 09 3c 08 7a f9 bc
       0.06540004 0.03884219 0.008394153 -0.030453697
000240 b5 b6 8e bc a2 10 13 3d 08 71 ac 39 ef c2 bd bc
       -0.017421106 0.035904534 0.0003289061 -0.02316424
000250 92 e8 77 bc a0 44 a5 bb 2f 23 44 3c 98 e1 ec bc
       -0.015131133 -0.005043581 0.011971279 -0.028916165
000260 62 4b 14 bd e1 2a 36 bd 13 b6 20 bd 7b ef 8b bb
       -0.036204703 -0.044474486 -0.03923614 -0.0042704917
000270 20 5e 9f 3c 7b bc b1 3c d6 ec 00 bd 56 d7 2f 3b
       0.019454062 0.02169632 -0.031475864 0.002683123
000280 16 61 3e 3d de 9d 79 3d 51 61 2e 3d 4e 29 e6 bc
       0.046479307 0.06094157 0.042573277 -0.028095867
000290 48 c1 04 bc ea d9 92 3c 32 f3 13 3d 59 3c f0 bc
       -0.0081027225 0.017926175 0.0361206 -0.029325651
0002a0 3b 60 7d 3a 64 42 20 3d 68 ed 04 3d 3d 8d d2 3b
       0.00096655235 0.039125815 0.03245297 0.0064255283
0002b0 f8 fb 48 bd e6 18 05 bd 41 b8 e7 3b 39 84 c2 bc
       -0.04906842 -0.032494448 0.0070715253 -0.02374469
0002c0 fe 29 3f 3c 0c a3 cb bc 79 93 f8 3c 62 e5 a6 3c
       0.011667727 -0.02485802 0.030343758 0.02037305
0002d0 53 3f 09 bc 51 bf 36 bd 52 1d 0e bd c0 ab 39 3c
       -0.008376914 -0.044616047 -0.03469593 0.011332452
0002e0 5d 67 77 3b 34 b7 2e 3d fb e2 19 3a 6b 6b c8 bc
       0.0037750818 0.042655185 0.00058703095 -0.024465283
0002f0 4f 35 27 3c 95 39 cf 3c ef 00 b3 bc ff 48 cc bc
       0.010205581 0.025296012 -0.021851031 -0.024937151
000300 07 5f 41 3a ae 53 57 bb 58 71 59 bc 8b 5e 46 3b
       0.0007376526 -0.0032856273 -0.013271652 0.0030268754
000310 75 0c eb 3b 3c 4c 90 3c 31 75 1a 3d 04 f4 d4 3c
       0.007173116 0.017614476 0.03770942 0.025995262
000320 4c b4 fd bc 30 96 d8 3c be 53 da bc 84 9d ed bc
       -0.030969761 0.026438802 -0.02665126 -0.029005773
000330 6c f8 d3 bc d2 15 29 3b 04 86 ed ba cf 95 d8 ba
       -0.025875293 0.002580036 -0.0018121605 -0.0016524139
000340 21 47 c3 bc 93 f1 29 3c 10 fb 24 bd 5e e8 50 3c
       -0.023837628 0.010372537 -0.040278494 0.012750713
000350 90 10 cc 3c fc db e7 3c 0c 22 3d bb 1e 20 aa 3b
       0.024910241 0.028303139 -0.0028859405 0.005191817
000360 7a 93 04 3c b6 69 70 3c 4c c7 5e 3c e3 09 99 3c
       0.008091802 0.014673641 0.013597321 0.018681472
000370 c0 38 de bc be 47 12 3d 86 9e ab bb 5a b3 a8 3c
       -0.02712667 0.03571295 -0.0052374033 0.020593334
000380 ce 63 0f b9 6c 56 6f bd b9 df 30 bd b1 e9 9a bc
       -0.00013674723 -0.058432028 -0.04318211 -0.01891026
000390 4e 75 be bb 77 a2 49 bd 62 c5 b6 bc c5 60 5a bc
       -0.0058123237 -0.049227204 -0.022310916 -0.013328736
0003a0 65 40 9f 3c 46 95 a1 3c 7a a5 2a 3c 2e 7b 00 bd
       0.019439885 0.0197245 0.010415429 -0.031367473
0003b0 4c b0 ac bc a8 98 0d 3d 43 37 f9 3c 77 da fe 3c
       -0.021080159 0.034569412 0.030421859 0.031110032
0003c0 46 f1 db bc 55 02 a0 bc 70 40 0a 3d c3 ff 14 bc
       -0.026848447 -0.019532362 0.03375286 -0.0090941815
0003d0 c1 3d c9 bc c9 d9 bb bc 87 bd 4d 3c ed 0b e4 3c
       -0.02456558 -0.022930996 0.012557394 0.027837718
0003e0 1a c8 5c bc d8 04 ce bb 84 d6 5f 3a dc 5c 10 3d
       -0.013475442 -0.0062871985 0.000853874 0.035244808
0003f0 c2 15 e1 3b bb db 06 3d 08 6b cb bc cd 2d f7 3c
       0.006869049 0.032924395 -0.02483131 0.030173207

bias f4 [64]
000000 b4 13 86 bb 8c 28 9f bc 71 5b 8b bd 01 4e dc bc
       -0.0040917043 -0.019428514 -0.068045504 -0.026892664
000010 bd 04 15 bd 90 a5 50 bd be 28 1c bd 3d 8a 6c bd
       -0.036381472 -0.050939143 -0.038124792 -0.05774902
000020 27 7b 40 bd bb d9 59 bd e8 92 b0 bc d0 46 f5 bb
       -0.046992447 -0.05318616 -0.021554425 -0.007485248
000030 60 4d fc 3c bc 44 21 bc 15 f2 30 3d 80 bc 8d bd
       0.030798614 -0.009843048 0.043199617 -0.06920719
000040 17 71 d3 b9 ee a7 cb 3b 56 96 c2 bd 86 73 67 3c
       -0.00040329315 0.006215087 -0.095013306 0.014126664
000050 a1 a7 03 bd 0f 20 f5 3c e4 e3 46 bd bc 19 05 bd
       -0.032142285 0.029922513 -0.048557177 -0.032495245
000060 32 62 10 bd 74 2a 9b bd 9f 45 97 bd a7 b2 20 3c
       -0.035249896 -0.07576457 -0.07386326 0.009808219
000070 0e 80 e9 bc 64 d9 fb bc a6 dd 9f 3b 68 67 48 3d
       -0.028503444 -0.030743308 0.0048787175 0.04892674
000080 c9 99 68 3c ff e0 9e bd d0 b9 36 3c 1f fc 4d bd
       0.0141968215 -0.07757758 0.0111527 -0.05028927
000090 8d 9b ca 38 b5 c0 ff bc de e4 1e bd 85 9e 4b bd
       9.661084e-05 -0.03121982 -0.038792484 -0.049711723
0000a0 96 9c f6 bc a6 b7 15 bc 32 57 3f bd 6b 41 78 bd
       -0.030103963 -0.0091380235 -0.046714015 -0.060609262
0000b0 6d eb 88 bd 71 cc 14 bd 29 39 c8 bc db 67 98 bd
       -0.06685529 -0.036327783 -0.024441319 -0.07441684
0000c0 9e 05 92 3b fa ff b4 ba 23 47 ef 3c c3 5d 1c bd
       0.004456236 -0.0013809197 0.029208725 -0.038175356
0000d0 72 2f a3 3c e9 ee bb bc 3b 0f 77 3b 60 ba 7d bc
       0.019920085 -0.02294107 0.0037698287 -0.01548633
0000e0 c2 16 bf bc fe 9f 14 bc 82 5d dd 3c 7b 33 dd bc
       -0.023326281 -0.009071348 0.027022127 -0.027002087
0000f0 dc bf 66 bd c7 ef 01 bd 74 e8 18 bd 08 1a 7a bd
       -0.056335315 -0.03172281 -0.03733106 -0.06105998

weight f4 [64, 1024]
000000 74 4c aa 3b 97 1a cf 3b 43 83 05 3c 0e d1 d7 bc
       0.005197102 0.0063203084 0.008148971 -0.026344802
000010 8c e2 23 3d 20 c0 43 bb f8 48 cb bc 9b 77 49 3c
       0.040010974 -0.0029869154 -0.024815068 0.012296583
000020 30 9a f3 3c d1 dd 0c 3b e9 cc eb bb f1 59 f4 bc
       0.029736608 0.0021494518 -0.007196058 -0.029828044
000030 99 36 a2 ba 64 25 ba bc 07 5d 10 bc a9 fb 83 3b
       -0.001237589 -0.022722907 -0.008811242 0.004027803
000040 88 09 e0 3c 36 23 f1 3c b7 92 03 bd 1d 25 0d 3d
       0.027348295 0.029435735 -0.03212234 0.034459222
000050 b2 ce cc 3b 3e ee f9 3c 49 2d 52 bb 74 6e 21 3c
       0.006250226 0.03050911 -0.003207045 0.009852994
000060 ff 84 fe bc 87 47 37 bc e8 90 b3 3c c3 7e b4 bb
       -0.031069277 -0.011186487 0.021919683 -0.0055082752
000070 d1 b7 95 3c 06 64 ad 3c 89 18 b2 3a b6 63 4c 3c
       0.018276127 0.021165859 0.0013587634 0.012474945
000080 da 3b fe bb 92 44 f7 bc 41 70 e4 3c 72 5f 3e 3c
       -0.0077585997 -0.030184064 0.027885558 0.011619436
000090 9f 85 74 bc fb 22 60 3c 25 b1 cd bc e0 62 85 bc
       -0.014924436 0.013680215 -0.025108883 -0.016282499
0000a0 17 0e bd bb 60 4e 3c 3c 97 b8 8d 3c af 45 ab bb
       -0.005769502 0.011493295 0.017299933 -0.005226813
0000b0 e7 4e 4a bc 76 9b 74 3c 1e 5e d4 bb 3a 45 88 3c
       -0.012347913 0.014929643 -0.006480946 0.016634572
0000c0 50 db 7d bc a3 a3 c6 3c 45 f0 aa 3c 55 e6 59 bb
       -0.015494183 0.02424795 0.020866523 -0.003324886
0000d0 a5 ba 49 bc b2 10 a0 bc 21 55 8b 3c 11 8d 0c bd
       -0.012312566 -0.019539211 0.017008366 -0.03431422
0000e0 1a 56 0b 3c aa a6 cd bc e9 0d 8e bb be f1 99 3c
       0.008504415 -0.025103886 -0.0043351543 0.01879203
0000f0 17 0f a0 ba 7c fa 47 bc 3f 51 f0 bb da fe 96 bb
       -0.0012211528 -0.012205716 -0.007333904 -0.0046080174
000100 be 55 83 bc 64 c4 cf bc da 49 0b bd 09 aa ec bc
       -0.016032096 -0.025362201 -0.034005977 -0.028889673
000110 d4 37 7b 3c 70 ae 2a bc fa 20 54 3c 3f 35 51 3c
       0.015333135 -0.010417566 0.012947315 0.0127690425
000120 fa b6 2d bc 06 17 bb bc 22 06 a4 3b e5 a2 d8 bb
       -0.010602707 -0.022838127 0.005005614 -0.0066112154
000130 41 76 dc 3c 5f e7 f6 3c f9 9f cb 3c 7d 90 c5 3c
       0.026911857 0.030139623 0.024856554 0.024116749
000140 99 38 4a bc 04 fa e8 3b 44 99 5e 3c ed 39 bd bc
       -0.0123425955 0.0071098823 0.013586346 -0.02309891
000150 59 b1 8f 3b e2 05 34 bc 88 2d 88 bc c9 e7 fc bb
       0.004385155 -0.010987731 -0.016623273 -0.0077180606
000160 c5 3d 1f 3d d4 10 22 3d c8 bf 96 bc cb d2 1d bd
       0.038877267 0.03956683 -0.018401995 -0.038531106
000170 a7 43 16 bc f4 5f e0 3a 46 54 1a 3d 20 bb cd 3c
       -0.009171403 0.001711844 0.037678026 0.025113642
000180 3e f8 1f 3b b0 38 51 3c f5 a0 d9 3c a4 e0 21 bc
       0.0024409438 0.012769863 0.026566008 -0.009880219
000190 bb ec a5 3b ee b2 68 bc ca 0d 44 bc d2 56 93 bc
       0.005063621 -0.014202816 -0.011966178 -0.017985735
0001a0 00 54 4d 3b c6 c6 30 3c de d7 09 3c fc 84 b6 bc
       0.0031330585 0.010789579 0.008413283 -0.022280209
0001b0 60 18 1b 3d 5c 6d 7d 39 b0 c1 a1 bc 00 b0 52 3b
       0.037865043 0.000241687 -0.019745678 0.0032148361
0001c0 8b 91 10 bd 95 fe 68 bb 92 c3 50 bb 9c 58 f9 3b
       -0.03529505 -0.0035552133 -0.003185485 0.00760944
0001d0 61 3f ce 3c b5 98 d2 bc c9 00 2f bb e6 df bf bc
       0.025176706 -0.025707582 -0.002670335 -0.023422193
0001e0 66 24 05 bd 3d 03 dc 3c fa 7e a2 bc af ac f2 3c
       -0.032505415 0.026857013 -0.019835938 0.029623358
0001f0 5c e9 0a 3d 05 13 87 3c ed d5 d2 3c 6c 00 19 3c
       0.033913955 0.016488561 0.025736773 0.0093384795
000200 cc 51 49 bc 81 e5 5a ba 6b a5 20 3c c1 c1 f1 bc
       -0.012287568 -0.0008350239 0.009805064 -0.029511334
000210 e1 7c 86 3c 37 22 8a bc 75 db 85 bc 9c 39 e8 3c
       0.016416969 -0.016862018 -0.016339997 0.028347783
000220 c1 5a 82 3c c2 b1 b7 3c c5 2e 66 bc ce c3 1d 3c
       0.015912415 0.022423629 -0.014049237 0.009629203
000230 07 93 f6 3c e8 f5 09 3c 28 2c 9e 3a 25 30 84 bc
       0.030099405 0.008420445 0.0012067603 -0.016136238
000240 42 ca 82 3c e3 9f bf bc 30 dd 81 bc e0 85 7c 3c
       0.015965585 -0.02339167 -0.01585254 0.015412778
000250 db d5 8e 3c dd e8 67 ba bb d4 dc 3a 96 f3 dc 3a
       0.017435959 -0.000884665 0.0016848067 0.0016857262
000260 88 d7 d9 bc bd b9 a7 3c 06 d4 36 3c 29 7e 4a bc
       -0.026592031 0.02047431 0.011158949 -0.0123591805
000270 a0 03 cb 3c 4e 5a 52 bd 22 f4 e7 bc f5 65 bb bc
       0.024782002 -0.051355653 -0.028314654 -0.022875765
000280 9b 3c 8c 3c 83 1d 2c bb 8d 95 1f 3c 84 c8 8c bc
       0.017118743 -0.0026262708 0.0097402455 -0.017185457
000290 a5 f2 2c bc 43 68 3e 39 18 79 74 bc e0 94 1c bc
       -0.010555898 0.00018158653 -0.014921449 -0.009556979
0002a0 c2 a8 ba 3a cb ad 66 3c 52 e8 d9 3b 41 cf 04 3d
       0.0014240968 0.014079521 0.006650009 0.032424215
0002b0 13 46 a2 ba 72 ab 13 3c 7a 03 01 3c 73 4c 0d bc
       -0.0012380503 0.009013044 0.007874364 -0.008624184
0002c0 4b ae 89 bc e4 3a d7 3c a1 15 3b 3a 4c d6 f6 b9
       -0.016806742 0.026273198 0.0007136707 -0.0004708044
0002d0 60 05 cf b9 04 0e b3 bb b0 b0 d4 bc 15 a7 7b bc
       -0.0003948612 -0.0054643173 -0.025963157 -0.01535966
0002e0 a6 e6 02 3d af c9 8b 3c cf 6f 33 bb e8 9d 0c 3c
       0.031958245 0.017063944 -0.0027379876 0.00858257
0002f0 b2 b6 bc 3c ae b6 10 bc 1a 0d a2 bb 60 e5 dc 3c
       0.023036335 -0.008832617 -0.0049454095 0.026964843
000300 cb c9 0b bc 14 2a b3 bc 46 22 cb 3c b4 42 b6 ba
       -0.008531998 -0.02187065 0.024796616 -0.0013905377
000310 d3 44 25 3b 33 c0 97 bc 52 96 49 bc 64 88 17 3c
       0.0025218024 -0.018524265 -0.012303906 0.009248827
000320 4d 86 f9 3a 6d b9 55 3c ad 56 1b bc f3 2a 5f bc
       0.0019037217 0.013044697 -0.009481114 -0.01362108
000330 10 9d c9 bc 34 4e ea bc 3e c3 0b bb 12 da a2 3b
       -0.024611026 -0.028601743 -0.002132609 0.0049698437
000340 82 27 9a bc 3f 29 a8 ba e5 68 05 bc 4f 5c 90 3a
       -0.018817667 -0.0012829675 -0.008142685 0.0011013838
000350 41 39 aa bc 9a 46 3d 3c d5 4f e4 3b 54 29 b6 3b
       -0.020779254 0.011552477 0.0069675245 0.005559126
000360 84 4b 2d bc 69 9d 34 bc b3 2f d7 bc 1c 5f ab 3c
       -0.010577086 -0.011023858 -0.026267862 0.020919375
000370 b2 30 0c 3b d3 0d fe 3c 0f c0 33 3d 2d 08 23 3d
       0.002139133 0.031012451 0.043884333 0.03980272
000380 8b 97 ba bc dd 86 85 bc 07 23 06 3d 9b d5 90 3c
       -0.02277734 -0.01629966 0.03274825 0.01767998
000390 d1 78 f7 bc d5 07 8c 3c 37 19 04 bc 1a 32 f4 bb
       -0.030208977 0.017093578 -0.008062652 -0.0074522616
0003a0 17 08 a1 3c 07 96 c9 3b 23 e2 e5 bc a7 d0 2a bd
       0.019657178 0.006151918 -0.028061932 -0.041702893
0003b0 85 87 c9 3b 6f 2e d8 bc a3 02 f4 bc 0c 7e b1 b9
       0.0061501884 -0.026389329 -0.029786414 -0.00033853983
0003c0 83 36 a1 bb 85 3e c1 bc b1 52 b9 3c d4 6d a3 bc
       -0.0049198284 -0.023589382 0.022622438 -0.019949831
0003d0 7a 21 68 bc e6 8c e8 bc b7 64 d3 3a 1e 0a d9 3c
       -0.014168138 -0.028387498 0.0016128038 0.026494082
0003e0 32 2b cd 3c 00 77 54 3c 93 17 fc 3b e1 36 25 3d
       0.025045011 0.012967825 0.00769324 0.04033554
0003f0 0d ed cc 3c f6 cb b2 3c fb ed 2c 3c 98 ad b0 bc
       0.025015378 0.021825772 0.010554786 -0.021567151

bias f4 [64]
000000 ec d1 e6 3c 2b bc c5 bc ee 45 f3 3b 92 de 5e 3d
       0.02817627 -0.024137577 0.0074241078 0.05441148
000010 d2 bb 8e bc da 2a 96 3c b3 e6 80 3b a0 78 87 3b
       -0.017423544 0.01833098 0.0039337515 0.0041342527
000020 b5 72 3c 3c c3 52 13 bd 4f 3a 16 3d 1e 75 41 3c
       0.011501958 -0.0359676 0.0366767 0.011807708
000030 61 53 30 bd 80 05 81 3b fa 5d d2 3c c3 bd 20 bd
       -0.043048266 0.003937423 0.025679577 -0.03924347
000040 f3 8f c4 bc ab 80 3e bb 70 2b 5d 3c 25 3e 49 bc
       -0.023994422 -0.0029068391 0.013499126 -0.012282883
000050 76 76 f0 3b 78 bf f2 bc 7e 40 69 3c 94 48 2e 3c
       0.0073383404 -0.029632315 0.014236568 0.010637421
000060 a1 b3 6b 3b fa ae 7c bd ef b0 36 3c 3c 94 94 3c
       0.0035965221 -0.06169031 0.011150583 0.01813709
000070 00 6e 36 3d af 7f 58 bd 77 a4 a3 bc be 49 be 3c
       0.044538498 -0.052856144 -0.019975884 0.023228522
000080 f8 34 05 bd 87 e1 bf bc 55 83 39 3d 04 8a 9b 3c
       -0.032521218 -0.02342297 0.045291264 0.01898671
000090 99 83 5d bd 06 9b af ba 92 42 0e bc 89 1d 1c bc
       -0.05408058 -0.0013397641 -0.008682864 -0.009528526
0000a0 50 f1 9a 3c d3 af b9 bc 92 63 75 bd 74 96 e6 3c
       0.018913895 -0.022666847 -0.05990941 0.028147914
0000b0 f5 88 09 3d 0b 6b 69 bd 46 64 db 3c a0 e5 94 bc
       0.033577878 -0.05698685 0.026781213 -0.0181759
0000c0 c4 ec f1 ba 7e b4 0f bd 17 26 15 bd 8c 13 9a bc
       -0.0018457402 -0.03508424 -0.03641328 -0.018808149
0000d0 cb e1 5e 3c 43 c4 11 3d 92 9a d8 bc 0f 84 7a 3d
       0.013603638 0.03558756 -0.026440892 0.061161097
0000e0 61 8b f6 3c b1 d0 4f bc 40 57 34 3c db 0c 71 3c
       0.030095758 -0.012684033 0.01100713 0.014712538
0000f0 cd 63 0b 3c 11 fc 41 3c 3d cf 14 bd 3c 14 0e bc
       0.008507681 0.0118398825 -0.03633045 -0.008671816

weight f4 [10, 64]
000000 8e a5 9e 3d 8a aa 93 3c e7 c1 af 3d 87 a6 02 be
       0.07746421 0.018025655 0.08581906 -0.12758838
000010 56 52 9b bc 9f 24 a5 bc 3a 71 c2 3d 52 03 fc 3c
       -0.01896016 -0.020159064 0.094942525 0.030763302
000020 3e 0d 4d be 6b 80 09 be ea ee e2 bd bc d8 d5 bd
       -0.20024583 -0.13427894 -0.110807255 -0.104417294
000030 17 78 74 bd fd e2 0c 3c 8b c2 22 3d 1e f0 fd bc
       -0.05968484 0.00859904 0.039736312 -0.030998286
000040 12 f6 3d 3e fd 93 97 3d b8 44 17 bd e3 f7 0d 3e
       0.185509 0.074012734 -0.03693077 0.13864093
000050 d2 10 13 be 34 61 10 3d 8a f9 05 be 6b f4 d3 bc
       -0.14361885 0.03524895 -0.13083473 -0.025873384
000060 5e 0d b5 bc f6 0b 3c 3e c6 1b 43 be 0d 83 34 3e
       -0.0221011 0.18363938 -0.19053563 0.17628117
000070 b4 d0 e0 3b a4 c5 d2 bb 61 61 2f 3e a0 99 58 be
       0.006860817 -0.006432252 0.17126991 -0.21152353
000080 d4 b2 20 3e 4e 30 f9 3d c5 0a b9 bd d9 56 01 be
       0.15693218 0.121674165 -0.09035257 -0.12630786
000090 9c 60 28 3e c1 2c 40 bd eb f9 6b 3e 59 9f 19 be
       0.16443104 -0.04691768 0.23044555 -0.15002193
0000a0 49 b7 f0 bb 64 ee df 3d 5a c3 d9 3d 06 06 aa 3b
       -0.007346068 0.10934141 0.106329635 0.0051887063
0000b0 ca 13 2c 3e 24 ce 6c bd 0c a3 3c be 44 6f ab 3d
       0.16804424 -0.05781378 -0.18421572 0.083708316
0000c0 97 f7 11 bd b5 ef d3 bd 62 f6 f2 3d 54 1f 0b 3d
       -0.03563651 -0.10348455 0.118634 0.033965424
0000d0 7f 1c 23 bd 43 8b 84 be cb 85 da 3d 16 4e 0b 3e
       -0.039822098 -0.25887498 0.1067005 0.13604006
0000e0 9d 86 3d 3e 88 c1 86 3b 2f ad ab bc 12 d6 41 3d
       0.18508382 0.004112426 -0.020956604 0.047323294
0000f0 81 71 dd bd 4b 50 6f bb 9f 79 90 bd ea 66 a1 bd
       -0.10812665 -0.0036516364 -0.070544474 -0.078809574
000100 c4 3b 5d be 32 bd 82 3d 1d 01 a7 bd 83 eb 48 be
       -0.2160483 0.063837424 -0.08154509 -0.1962109
000110 55 5c 0e 3c a4 55 02 be 33 78 3c bd 49 33 5d be
       0.008689006 -0.12727982 -0.04601307 -0.21601595
000120 3f 53 33 3d 8a 3c 8d 3d f5 b4 3f be 4a dd 18 bd
       0.04378056 0.068963125 -0.18721373 -0.037320413
000130 26 3c 10 3e a3 eb 13 3e 9c fb 6d 3d 48 5b f7 3d
       0.14085445 0.14445357 0.05810128 0.120779574
000140 08 8b 21 3e 08 97 02 be 1b 29 a3 3b b7 84 7b bc
       0.15775692 -0.12752926 0.0049792654 -0.015351466
000150 76 c6 bc 3d 04 9b 43 3e 0d 06 85 3e ec df 46 3e
       0.09217541 0.19102103 0.2598118 0.19421357
000160 27 84 3b 3d 49 ed 78 3e 42 8e 40 be cc 35 08 3e
       0.045780327 0.24309267 -0.18804267 0.13301772
000170 e0 3f 37 3e b8 0b 1c 3e 13 54 0e bd 11 a4 74 bd
       0.1789546 0.15238845 -0.03474815 -0.05972678
000180 0b 0e ea bd 09 49 e2 bd 13 5a 86 3e 0b a0 33 be
       -0.1142846 -0.110490866 0.26240596 -0.1754152
000190 49 80 51 bd a2 64 31 be 5b f3 2a be 12 dc 49 bd
       -0.051147733 -0.17323545 -0.16694395 -0.04928214
0001a0 65 67 a5 3e 6d f0 cd 3d 09 34 b2 bd 6d 30 8f 3e
       0.32305446 0.10055623 -0.08701331 0.27966633
0001b0 83 01 67 3d ee b3 1d 3c be f5 93 bd 31 c6 df bd
       0.056397926 0.009625418 -0.07224606 -0.10926474
0001c0 02 45 7b 3d 9f 59 7f bd dc c5 3a bc 87 ec a1 3d
       0.061345108 -0.06234133 -0.011399712 0.07906442
0001d0 96 df 28 3e 0d 5e 02 3e 65 14 40 bd 0a 48 a4 be
       0.16491541 0.1273119 -0.04689445 -0.3208621
0001e0 08 47 59 bd b4 3a 15 3e f3 f4 5a 3e 37 23 ee 3d
       -0.053046256 0.14573175 0.21382503 0.116278104
0001f0 a2 7d 1d 3e 3d 9a e3 3d 9d 4e f4 bc 7f 5e 8b be
       0.15379956 0.11113403 -0.029822642 -0.27220532
000200 f0 da 66 bd d4 ae 62 3c 5e d0 ae bd 64 f0 81 bc
       -0.05636114 0.013835628 -0.08535837 -0.015861697
000210 99 69 13 be 08 ef 01 3e 67 51 73 bd 72 a9 57 3c
       -0.14395751 0.1268884 -0.059403803 0.0131629575
000220 10 46 9c 3d a8 6d 82 bd 76 63 89 3d ec 4a 36 3e
       0.07630551 -0.063685715 0.06708424 0.17802018
000230 e9 95 53 bd f5 ce e1 bd 5f 05 3d 3e d1 4e 22 bc
       -0.051656637 -0.11025802 0.1845908 -0.009906487
000240 51 24 22 be 6e 75 05 be 65 c5 88 bd ce 39 8f bc
       -0.15834166 -0.13033077 -0.06678275 -0.017483618
000250 54 d8 d8 3d 40 e7 a8 bc 89 03 16 bc 92 35 35 be
       0.10588136 -0.020618081 -0.009156116 -0.17696217
000260 2a c2 6b 3d 7e dd c7 3c c4 01 06 bd ea e5 06 be
       0.057558216 0.024397608 -0.032716528 -0.13173643
000270 ba be 5e 3d 10 69 0c bd 9b 33 3b be c3 51 12 be
       0.05438111 -0.034279883 -0.18281405 -0.14289002
000280 a5 78 ca 3d 71 7c 4f 3d 54 4c 95 bd ec 72 22 3e
       0.09886292 0.050655786 -0.07289949 0.15864152
000290 94 90 37 3e a6 3e c0 3d c7 bf 45 3e f5 0e a9 bd
       0.17926246 0.09386949 0.19311439 -0.08254806
0002a0 c4 48 1b be fb 49 0b be 9e 86 f1 bd 7d 97 f0 bb
       -0.15164477 -0.1360244 -0.11793254 -0.0073422776
0002b0 87 ca 89 bd 17 e5 c0 3d 93 80 8a bd 4b 42 80 3d
       -0.06728082 0.094186954 -0.06762805 0.062626444
0002c0 da 1e fb 3d 80 f8 2b 3d f0 2b 0a be 41 8b 77 be
       0.12261744 0.041985035 -0.13493323 -0.24174215
0002d0 e9 d7 a3 3d 4e 17 76 be 55 9f fc 3d 78 25 db bc
       0.08000166 -0.24032328 0.12335078 -0.026751265
0002e0 f2 eb 0f 3b ef b0 8b bd 5c 62 8c 3d 5d b1 67 3d
       0.0021960703 -0.06820857 0.06854698 0.05656563
0002f0 fc 0c 4c 3d 43 c0 14 bd a8 2a fd 3a 59 fb 86 3e
       0.04981707 -0.036316168 0.0019315081 0.26363638
000300 59 27 c4 bc 07 fc 8c 3c a4 6b ed 3d c2 b4 8b 3c
       -0.023944544 0.01721002 0.115927964 0.017053965
000310 35 27 23 3e 64 f4 37 3e 71 39 aa 3d 3a 8c d2 bd
       0.15932925 0.17964321 0.08311737 -0.10280652
000320 26 6d aa 3d bf f2 c4 ba a8 f8 2d 3e 46 10 bf 3d
       0.083216 -0.0015025957 0.16989386 0.09329276
000330 b4 c9 81 3d 07 dc 9c bd 51 c5 ed 3d 7f d8 c7 3d
       0.063373 -0.076591544 0.11609901 0.0975809
000340 a2 80 b9 3d 4f 36 80 3d 5f 41 1f bd ba 46 16 3d
       0.09057738 0.062603585 -0.038880702 0.036688544
000350 89 2c af 3d 20 b5 32 3d e4 2b 56 bd 74 e9 b2 bd
       0.08553416 0.043629766 -0.05228795 -0.08735934
000360 d0 9a 09 3d 3b 30 2f bd e0 5e 4a 3c 5b b5 38 be
       0.033594906 -0.042770606 0.0123517215 -0.18037932
000370 ea d2 8b 3d 6d 15 03 be da 8a 4b bd bb 41 be bc
       0.06827338 -0.12801142 -0.049692966 -0.023224702
000380 50 ea 58 3c 1e 40 76 3d 15 d0 57 3d 40 39 32 bd
       0.013239458 0.06011974 0.052688677 -0.04351163
000390 8a 9f 1d be 81 8b 56 bd 94 09 12 be ab a4 27 3e
       -0.1539289 -0.052379135 -0.14261466 0.1637141
0003a0 dd bc 2c be a8 c3 38 bd ea e4 f8 bd bb 25 39 be
       -0.1686892 -0.045108467 -0.12153037 -0.180808
0003b0 79 c9 64 3d 53 4d f3 3d 56 24 96 bd 19 c0 03 be
       0.0558562 0.11879983 -0.07331149 -0.12866248
0003c0 27 a3 92 3d ab 98 05 3e b5 84 45 bd 47 19 24 3c
       0.07160025 0.1304652 -0.048222262 0.010015792
0003d0 62 6d 7f bc fb 80 bd 3d ea 28 c7 bd f9 26 6e 3e
       -0.015590044 0.09253117 -0.097246006 0.23257054
0003e0 6b 99 ee bc b6 d5 89 bc 99 c2 6c bd 0f dd 9c 3d
       -0.02912589 -0.016825538 -0.05780277 0.07659351
0003f0 89 6d e4 3d 68 ef 0b 3e ff 62 68 bd 1f f8 dd 3d
       0.11153705 0.13665545 -0.056735035 0.10838341

bias f4 [10]
000000 de 15 2f be 7a 4e f8 3b ab 9f 12 3d 38 62 23 bd
       -0.17098185 0.0075777145 0.035796802 -0.03988859
000010 4d 6d a7 3d 44 40 cb bc 0f a3 28 3e ee 79 b7 bd
       0.08175144 -0.024810918 0.16468452 -0.08958803
000020 fc 43 40 3d 6a 91 ba 3d
       0.046939835 0.09109767
