pytorch_Started/model_train/tank_20.pth (torch, 587527 bytes, 10 tensors)

weight f4 [32, 3, 5, 5]
00000000: 15ca 44be 069b 9bbd c610 aa3d 0b0e 12be
00000010: 3242 d2bd eb28 c3bd 052b 61be d88b 173d
00000020: 46d8 5d3d fae4 c6bd 6a7c 9abd 4634 863d
00000030: c42e 3bbe 0355 cb3d ac29 033e e6ac 4c3e
00000040: f9a8 943c b1cb d23d 3d44 eabc fbf7 e0bc
00000050: 3887 1d3e 21ce 29bd 49ca 1f3e 3e97 a7bd
00000060: a6b8 843d 676c a9bd 38fe b13d ccc5 353c
00000070: a693 93bd 3f15 f1bb 33b3 2b3d 74e1 3abe
00000080: b2ad 573c 127d c53d 0e88 d43d 2bde 043e
00000090: bb62 2abd e7dd 823c 89a8 89bd f9e5 c23d
000000a0: d48f 4a3d cba3 223e e15f 973d d120 093e
000000b0: 3b8f 96bd cd47 453e 3c30 90bd 620c 783d
000000c0: 053b 38bc e6e3 d03d d88c 19be 591d 4abd
000000d0: b6e0 fa3c c636 acbd 1d40 0a3d 4813 b3bd
000000e0: 791b 2bbe 6b8d 99bd 7c30 c2bd ebcf f9bd
000000f0: ddb5 70bd 6633 8fbd 0093 5fbe 6850 32bd
00000100: d1a2 edbc a852 223e 67dd 3a3d f8ec c3bc
00000110: 229e 5bbd aad9 c1bd 2f02 f83d c95d 5bbd
00000120: 8368 2f3d 2d82 843c ad00 c4bd 7d6f 193e
00000130: 0757 3abc 3338 77bd e536 883c 93b7 64bd
00000140: fc9e 1a3e 95f6 7a3d cc91 933d fb6b 443d
00000150: 97fb 1b3d fa70 a8bb 7d5d 6abd fccb 0e3e
00000160: 1229 973d 91c1 513e a6dd 0bbd 20f1 ef3d
00000170: 4e70 f13d 5c01 243e 5647 543c 8e7e 983b
00000180: e978 c2bd 7763 6cbc b69c 1c3e d96c 0ebd
00000190: 1b44 1a3d 969e b43d 7f46 cabd 6b97 503d
000001a0: 0c04 1abe 288b 71bb f022 963d 6c9e e73d
000001b0: ea46 2ebe cc38 0fbe 293e 12be 6285 bdbd
000001c0: 1e23 6fbd fc0f f7bc f719 033e 61a7 063d
000001d0: 11e6 cdbd eeda 4c3d bfc9 2a3c 7c89 33bd
000001e0: 1984 a5bd da07 7a3b 8ec9 873d 6420 8dbd
000001f0: c1f2 41bc 3d1d 0a3e 6198 dd3d 264a aa3d
00000200: 7498 0d3b 1450 003d 939e 76bd f47e be3d
00000210: 9aeb 0dbd f743 09be 466b cabd cc9b e5bc
00000220: 0405 ccbd 9f71 8cbd f02a 12be 250a 3e3c
00000230: 4878 febd a50f 9cbd e328 0ebe 5d15 4e3c
00000240: 8e22 f13d 1df2 00be 8b21 0d3d 7f3a 913c
00000250: bc66 99bd 8bab cbbd fd87 f13c a76d 6f3d
00000260: c21d 533c d72b b33d 2327 b93d 3a5f 303d
00000270: 83b8 d4bd 2ad6 3dbe 00ff 7dbd c268 b4bd
00000280: a46b 973d 9b8f 363e 3dec d73d 8d7f cd3c
00000290: 2de2 2fbe 98f9 e3bd acb2 afbd d0d4 883a
000002a0: ddba 91bb 78fc 9c3d 28d7 c2bd 6b8f 17be
000002b0: fe99 eb3c a042 a4bd 6306 e2bd 8784 013e
000002c0: 334d dabd 1982 12be 6439 d53d d24e 0e3e
000002d0: 8488 a23c 83cc 80bd fb7e 31be 8cd3 7a3d
000002e0: 32ec c8bc 2508 6b3d 64d5 213e e9a3 8f3d
000002f0: 5756 5d3c 3254 d0bd 982b 82bd ef12 a13d
00000300: 3e27 393e 0d19 643d a41e c63d e80c adbc
00000310: 1136 b9bd d730 b43d 2e63 1cbd c6c2 cf3d
00000320: 9bfa 843c 3cdb 8ebd da45 9ebd 2103 bf3d
00000330: f880 b3bc 285e 043e 5fb0 fdbd 192d 5fbd
00000340: 863c 0fbe d387 88bc 36b7 88bd cd29 173e
00000350: afb9 103e 50b4 b3bd 5a07 413c d508 0abe
00000360: 6345 3bbc 8223 e13d dc55 703d aab4 d23d
00000370: 88d2 c8bd fdd8 e23c b2c3 ec3d 1d69 8cbd
00000380: b697 b3bd 5993 fcbd d18c f43b ddaa 9dbc
00000390: 35ab 7b3d 8f4a 2cbe f7a9 33bd b4a8 b4bd
000003a0: 6134 8fbd 0df4 a23d ffa4 71bd d37c d2bc
000003b0: 01f2 bb3d db9d fa3d 1f68 283e 1f6b ad3d
000003c0: 6eeb 99bd a53e 183e 8408 00bd f4d0 583d
000003d0: 238b 79bc 52d8 7dbd dbe6 063e 2c91 e93d
000003e0: 5da6 9bbd a9ae 92bb a526 8c3c 928b ae3c
000003f0: 5e9c d53d 00a0 d23d 38d3 02be ddc4 0ebe
-0.19217713 -0.07597928 0.083039805 -0.1426317 -0.10266532 -0.09529289 -0.21989067 0.0369986
0.054161333 -0.097116426 -0.07543261 0.06552939 -0.18279558 0.09928324 0.12808865 0.1998783
0.018146979 0.10292757 -0.028596992 -0.027461996 0.15383613 -0.041456345 0.1560451 -0.08183144
0.064805314 -0.08272629 0.086910665 0.011094522 -0.07205896 -0.007357269 0.041918945 -0.18250066
0.013163971 0.09642996 0.10377513 0.12975375 -0.041598063 0.015974952 -0.06721599 0.0951652
0.04945357 0.15882795 0.07391334 0.13391425 -0.07351538 0.19265671 -0.0704045 0.060558684
-0.01124454 0.10199718 -0.14995134 -0.049344394 0.030624729 -0.08408885 0.03375255 -0.08743912
-0.16709699 -0.074976765 -0.09481904 -0.1219786 -0.05876719 -0.06992225 -0.2183342 -0.043533713
-0.029008301 0.15851843 0.045621302 -0.023916706 -0.053617604 -0.09465344 0.121097915 -0.053556237
0.04282428 0.016175354 -0.095704414 0.14983936 -0.011373288 -0.06035633 0.016627738 -0.055839133
0.1509971 0.061270315 0.07205543 0.04795454 0.03808173 -0.005140421 -0.057218064 0.13945001
0.073808804 0.20483996 -0.034146927 0.11715913 0.117889985 0.16016144 0.012956461 0.0046537584
-0.09495718 -0.014428011 0.15294155 -0.034771774 0.037662607 0.0881931 -0.09876727 0.050925653
-0.15040606 -0.0036856625 0.073308825 0.113095134 -0.17019239 -0.1398651 -0.14281525 -0.092539564
-0.0583831 -0.03015899 0.12802874 0.03287447 -0.10053647 0.050013475 0.010424077 -0.043832287
-0.08081836 0.0038151653 0.066302404 -0.06890944 -0.011837662 0.13487716 0.108200796 0.08314924
0.0021605762 0.03132637 -0.060209822 0.09301558 -0.034648515 -0.13404833 -0.09883742 -0.028028391
-0.09961894 -0.06857609 -0.14274192 0.011599098 -0.124252856 -0.076201715 -0.13882785 0.012578336
0.11774169 -0.12592359 0.034455817 0.017728088 -0.07490298 -0.099448286 0.02948379 0.058454182
0.012885513 0.08748596 0.09040668 0.043059565 -0.10386755 -0.18538728 -0.062010765 -0.088090435
0.07393578 0.17828219 0.10543106 0.025085235 -0.17176123 -0.111315906 -0.08579001 0.00104394
-0.0044473247 0.07665342 -0.09513694 -0.14800803 0.028759953 -0.0802052 -0.110363744 0.12648211
-0.10659256 -0.14307441 0.10411337 0.13897255 0.019840486 -0.062890075 -0.17333595 0.061236903
-0.02452669 0.057380814 0.15804058 0.07013685 0.013509355 -0.10172309 -0.06355971 0.078649394
0.18081376 0.055687953 0.09673813 -0.021124318 -0.090435155 0.08798378 -0.038180523 0.10144572
0.01623278 -0.069754094 -0.07728167 0.09326769 -0.021912083 0.12926543 -0.12387156 -0.054486368
-0.13987932 -0.016666329 -0.0667557 0.1476204 0.14133333 -0.08774626 0.011781538 -0.13479932
-0.011430117 0.10993101 0.058675632 0.10288365 -0.09805781 0.027691359 0.115607634 -0.06855986
-0.08769171 -0.12332792 0.0074630757 -0.019246513 0.061442573 -0.16825317 -0.043863263 -0.0882124
-0.06992412 0.07956705 -0.058995243 -0.025694286 0.09177018 0.1223714 0.16445969 0.08467697
-0.07515608 0.14867647 -0.03125812 0.05293365 -0.015230927 -0.061973877 0.13174002 0.114046425
-0.07600091 -0.0044763875 0.01710827 0.021306787 0.10430215 0.10284424 -0.12775886 -0.13942285

bias f4 [32]
00000000: e5f6 433e 1156 9abd 59ec 3bbd 460f 9fbe
00000010: ced1 663e 69ce 5b3d 4fb1 cebe 0abb 183c
00000020: 2700 e1bd 8b0a e7bd d3a5 7cbd f98f b5bd
00000030: 8f1d 6abe 9dbd f3bd f1b4 8cbe abac ddbd
00000040: 69d3 78bd e338 603d 9a4a fd3c 2155 a83c
00000050: 5960 ca3c f5e9 133e 29fd 493d a27d 82be
00000060: 7dac 0d3e 5fe0 883c d1a8 6b3c 2b76 33be
00000070: efca 1bbe a972 8fbe d606 c73d d553 303e
0.19137152 -0.07535947 -0.045879696 -0.3106634 0.22540972 0.053663645 -0.4036965 0.009321937
-0.10986357 -0.11281308 -0.06168158 -0.08865351 -0.22862838 -0.119014 -0.27481797 -0.108239494
-0.06074849 0.05474175 0.030919362 0.020548405 0.024704145 0.14444716 0.049313698 -0.25486475
0.1383533 0.016708551 0.014383511 -0.17525546 -0.15214132 -0.28017166 0.09718101 0.1721948

weight f4 [32, 32, 5, 5]
00000000: 9c9b ed3c a50e e03c f613 c5bc abe1 013d
00000010: 9337 3ebc 4c2d d83a 3977 373c 260c d13c
00000020: 5b23 2c3d b9e0 7d3d 2231 c43c 2d27 66bc
00000030: cef8 6d3c 8a6d 563c 5c5d 53bc 4007 61bc
00000040: a148 a13b 6fcc 08bd e218 513d edc3 1c3d
00000050: 055b dabc 62a5 fd3b f640 063d 22e6 923c
00000060: ed8a 9d3b c295 d43b 2028 f53b 266c aa3c
00000070: e8d0 d739 aed4 2dbc 1d60 b53b e8c5 51bb
00000080: 4e55 1d3d 0109 e1bc c8e7 d73c f05d ae3a
00000090: b87c b2bb b9a3 963c 10f7 613d 39cc 7e3d
000000a0: c492 17bc d61b f2ba 467a e43b 46be 463d
000000b0: ed93 62bc 1a49 083d 1080 1c3d f5f2 ab3c
000000c0: b06c 08bd 5d4e 57bc 6a6e 3f3d 4f63 023d
000000d0: 900e 08bb 9892 a0bc 2117 d93b 15fd f83a
000000e0: b668 733d a2c3 1d3d 5455 183d aed4 533d
000000f0: 0587 813b 0176 103c 555a e43c fc1e 8ebb
00000100: aa1f f83a 1984 333c d265 1dbc 6881 f6ba
00000110: a42a ba3c 07ac 3abc d1c4 983c 86f8 65bc
00000120: 4a9a 323c 825c 123d c509 a63c e159 90bb
00000130: 9360 a83c 4b76 a0bb a621 da3c 3229 bb3c
00000140: 37fd dfbb fe22 ec3b 2c24 d43c c77d 4f3d
00000150: 52b0 a9bc 5d14 373c 2a03 393d a42c de3c
00000160: c39d 4dbc 8082 85bc ca47 bd3c c6a0 a0bc
00000170: 8748 eb3b 68ec a9bb eabb 363d 2657 10bd
00000180: 0a13 993c 60b7 133d cde6 563d 5156 2c3d
00000190: 404d 8a3d c0ae 5f3d db19 d93c d4f7 cf3c
000001a0: 1d02 f63c 583a 623d 3dcc 323d 0673 b13d
000001b0: f7a5 c03d 6a9e 8c3d d44b 353d e266 863d
000001c0: 276c 6c3c 7cd5 343b 35ba aa3c 9e1e ed3b
000001d0: ba09 a5bc bcec 423c cc25 1b3d 2a33 9e3b
000001e0: 82b7 19bc fb7e b23c bb15 923c 48fa 41bd
000001f0: 97b7 15bd 9baa a73c 5a88 383d 9a6f 033d
00000200: 7293 353d 6359 e43c 3523 493d 7311 633d
00000210: 5351 593d 6216 593c 22ea 613c 8021 f93c
00000220: 62c0 b3bb 6bc8 a63d a362 743d 0799 503d
00000230: a6ca bd3c 6a3c c039 efec 513d 671d d1bc
00000240: dc1b 013c 4555 4abc 9f86 1e3b 3e8f cdbc
00000250: 49e1 0c3d da56 573d 73f3 423d b7ad 003d
00000260: eca3 f23c e144 91bc 2e2c a23b 4712 ff3c
00000270: f94e ce3c 65dd 183d fa06 093d 460e 0dbd
00000280: bc8a b43c ba24 bfbc 60af 8c3d ab94 0d3d
00000290: edfa 473c 50dd 3b3d c0eb 563d b0b3 a8bc
000002a0: 2aa5 893c 9a43 323d 1029 8fbb 7aba 71bd
000002b0: 6179 0dbd ccee 813c fbf8 493d 0e8e f53c
000002c0: 47e4 883c 877c dd3b ed33 c43c eb7d 003d
000002d0: d85a 3c3d c0d9 663d 7b07 863d bce8 e93a
000002e0: 5d6f 1b3d 80ea c0bb 0131 b3bb aeef b33d
000002f0: 3058 943d 6955 f53c 16ab b63c a8e7 f43c
00000300: 2a60 2f3b cdcf 83bd b892 9bbc 609b 23bd
00000310: 6470 20bd 6dbf 9d3c 83ce d33b b619 433b
00000320: d2c9 033d 6e0d 1fbc c7c3 a1bb ff4a fc3c
00000330: b189 c7bc 885b bebb 1177 0bbc f7b2 003c
00000340: 6dd1 d63c 43fb 1b3d e7dc 843c 7457 3fbc
00000350: e042 80bb 5222 83bc 80ab 673d 84f7 bb3c
00000360: 7551 7ebc ce99 153d ff06 123d 4b40 853d
00000370: 47a1 8a3c 4290 023c 7b7b 3a3d 360f 143d
00000380: 0008 953c f179 8e3c cba4 7bbc 5e7f 8d3c
00000390: 8bf9 a9bc 9698 89bc 5a98 ba3c f92b f63b
000003a0: bd75 cd3c 84d5 913c 3704 03bd 0859 7fbc
000003b0: 45c3 ca3c 4ef9 9a3d 2714 853d eaac 8b3c
000003c0: f6c3 f23c 9bdf 363c f52f d03b 9d10 e03c
000003d0: ec4e 3e3b 1647 b03a ebe7 3abc 7478 1a3d
000003e0: 33af 1e3d 6265 db3b 0126 e3bc b3c4 8fbc
000003f0: 1e6a ed3c f1d4 efbb 9268 4dbc 8db7 cd3c
0.029004864 0.027350733 -0.02405737 0.031709354 -0.01160993 0.0016492992 0.0111978585 0.025518488
0.042025905 0.06198189 0.02394921 -0.014047426 0.014524652 0.01308764 -0.012900677 -0.013734639
0.004921988 -0.033398088 0.05104912 0.038272787 -0.02665473 0.0077406624 0.032776795 0.017932002
0.004807821 0.006487579 0.00748159 0.020803522 0.00041163643 -0.010609789 0.0055351392 -0.003200883
0.03841143 -0.027470114 0.02635564 0.0013303142 -0.0054469965 0.018388616 0.055167258 0.06220648
-0.0092513 -0.001847143 0.006972584 0.048521303 -0.013829214 0.03327284 0.038208067 0.020989874
-0.033306777 -0.013141242 0.04673616 0.03183299 -0.0020760633 -0.019601151 0.0066250716 0.0018996323
0.059426032 0.038516648 0.03719075 0.0517165 0.003952863 0.008817197 0.027875105 -0.0043371897
0.0018930335 0.0109567875 -0.009606795 -0.0018806877 0.02272541 -0.011393554 0.018648537 -0.014036303
0.010901043 0.035732754 0.02026833 -0.0044052457 0.020553863 -0.004896914 0.026627373 0.022846792
-0.0068356055 0.00720632 0.025896154 0.05065706 -0.020713959 0.011174289 0.045169033 0.027120896
-0.01254982 -0.016297579 0.02310552 -0.019607913 0.007180277 -0.0051856525 0.044612803 -0.03523936
0.018685836 0.036063552 0.052466203 0.042074505 0.067530155 0.054610014 0.026501587 0.025386728
0.030030305 0.055231422 0.043651808 0.08664517 0.09406655 0.068661526 0.04426177 0.06562592
0.014430082 0.0027593067 0.020840744 0.007236316 -0.02014624 0.011897262 0.037877843 0.0048278766
-0.009382131 0.021789065 0.017832628 -0.047357827 -0.036552038 0.020467093 0.04505191 0.032088853
0.044330068 0.027874654 0.04910584 0.055436563 0.053056072 0.013249965 0.013788732 0.030411482
-0.0054855803 0.081436954 0.05966438 0.05092719 0.02316792 0.00036666106 0.051251348 -0.025526715
0.007880177 -0.012349431 0.0024189127 -0.025092717 0.034394536 0.052573062 0.047595453 0.031415667
0.02961918 -0.01773304 0.0049491143 0.031136645 0.025184141 0.037320513 0.03345392 -0.03443744
0.02203881 -0.023332942 0.068693876 0.03456561 0.012205821 0.045865357 0.052470922 -0.020593494
0.01680239 0.0435215 -0.0043689087 -0.05901573 -0.034539584 0.015860938 0.049309712 0.029974964
0.016710414 0.0067592296 0.023950541 0.031370085 0.045985073 0.056360006 0.065443955 0.001784585
0.037948 -0.0058873296 -0.005468488 0.0878595 0.07243383 0.029947953 0.022298377 0.029895619
0.00267602 -0.06436119 -0.01899086 -0.0399431 -0.039169684 0.019256318 0.006463827 0.0029769964
0.032174893 -0.009707792 -0.0049366686 0.03079748 -0.024357649 -0.005809251 -0.008512274 0.007855169
0.026222909 0.03808142 0.016218616 -0.011678565 -0.003914222 -0.016007576 0.05656004 0.022945173
-0.015522351 0.036523633 0.035651203 0.065064035 0.016922606 0.007968964 0.045527916 0.03614732
0.018192291 0.01739213 -0.015359114 0.017272647 -0.020748874 -0.016796391 0.022777725 0.007512566
0.025080556 0.017802007 -0.03198644 -0.015585192 0.024751315 0.07567082 0.064979844 0.017050225
0.029634457 0.01116171 0.006353373 0.027351672 0.002903874 0.001344892 -0.011407833 0.03771253
0.0387413 0.0066954354 -0.027728083 -0.017549848 0.028981265 -0.0073190858 -0.012537139 0.025111938

bias f4 [32]
00000000: 54c7 b13c d03c 33be 5dad be3c 4052 3cbd
00000010: 1d3b bb3b b4e3 0cbd b701 bbbd a15e c2bd
00000020: 7b05 363d b035 3dbe 1031 f7bd 2414 a4bd
00000030: 85ef 5cbd 23fe 3abc 98c1 36bd ba67 04bd
00000040: f788 923d cf4b 32bd 19e7 013c a38e 6cbd
00000050: bf1e f0bd e4b2 8bbd 33af 353c 3ee6 31bb
00000060: 27dc e7bd 754e a53a a925 9f3c 095d 033d
00000070: 94de 93be 4590 4fbd 68e9 0e3d fc42 2dbd
0.021701492 -0.17503667 0.023276025 -0.045976877 0.005713834 -0.034396842 -0.091311865 -0.09490705
0.04443882 -0.18477511 -0.12069905 -0.08011654 -0.05393936 -0.01141313 -0.04461822 -0.032325484
0.0715503 -0.043529328 0.007928633 -0.057753216 -0.11724614 -0.0682123 0.011089134 -0.0027145292
-0.113212876 0.0012611883 0.019427137 0.032071147 -0.2888075 -0.050674696 0.034890562 -0.04230021

weight f4 [64, 32, 5, 5]
00000000: 092c 6e3d 858a ad3b 2d89 8a3c 7e36 373d
00000010: 33d6 b83b d2b3 913d aa6d 8b3b 40ff 24bd
00000020: a444 deba 8c1c 9fbc 781c 9a3c d00b 85bd
00000030: d89c 13bd 8348 7abd c0d7 5bbc b5d6 8e3c
00000040: 630b 23bd 0ef6 d9ba d951 94bc caf9 5e3d
00000050: 8d8c 853b cdb0 143d eebf 3ebd 1960 613c
00000060: 7d2e 8bbc 7061 f739 6e6a 93bb 6af8 5fbc
00000070: 76d9 8ebc 5657 303d 0329 793d 01e8 383d
00000080: 5dbb 24bc 8e63 7dbd 17fd b1bc bfb2 053b
00000090: 91a6 1a3b 509b 27bd dd36 09bd d4c7 583d
000000a0: dddf 58bc 01eb cebc a0c0 493c d14e 21bd
000000b0: ebf8 c23b 773c 58bd d115 dabb 764d c63c
000000c0: 243a b9bc 4259 293d 96a9 523c adc4 dabc
000000d0: 4b98 fbbc b25d 373d 6c5b c0bb 4695 943c
000000e0: ca1e 243d b8dd d5bc 192d c13c 7193 9b3c
000000f0: 864d 583d 09df 89bc ab5a 7f3c a485 b0bc
00000100: 4de1 373d cc99 e33c a0bb 14bd f58b 233c
00000110: 0d2b 09bd 1552 35bc 7aac 8b3a 1b88 ac3c
00000120: ed03 12bd d7dd fdbc 84bc 52bc 471e de3c
00000130: d79f cabc 97b3 6d3d 9140 8d3d e486 89bc
00000140: 3039 1bbc 40c4 073d 9e50 4e3d 26e5 303b
00000150: dea0 55bc 6622 4c3d 6301 d5bc 1516 eb3c
00000160: 4bfe d7bc 7c5e 88bd e23c 60bc 0810 04bd
00000170: a544 4cbc 44c6 993c d9a7 d43c c1c9 1d3d
00000180: 7c51 7bbc 231d 4e3d 790f 823c e070 80bb
00000190: d3e3 193d 05b4 6d3c bf49 d6ba 2d27 a13b
000001a0: 413e 61bb 5f5e 89bb 5dea c1ba e40c 3bbc
000001b0: e394 99bc ef43 37bb 056c 88bc ca39 05bd
000001c0: 1aa2 853c 86ce afbc e91c 623d 5cdd 173d
000001d0: 2387 303c 8842 5d3d 5eea 12bd 8e72 073d
000001e0: af25 643b 45c4 d3bc f4e7 5a3c dee2 a6bc
000001f0: 74b2 2238 9dda 45bd 744d 5cbc df9b bfbc
00000200: 74ce 3f3d ed19 4abc 9311 913c 71b0 1dbc
00000210: fc77 af3c bd76 223d a467 273c 2eae c7bc
00000220: 525c fa3a e68c 303d 0d0f 933c 4dd5 1abd
00000230: 5ac9 07bc 1977 23bd 21d5 083d 8017 fd3c
00000240: b011 14bd f422 eebb 50bd 06bd e05a 783c
00000250: 0ea6 b0ba 56f4 aabc 4fc9 843c f490 9cbc
00000260: c44a e23c 45a1 f93c 58e5 133c 96c1 9bbc
00000270: cf0b ccbb f54c 693d 2efe 613d 5040 4abb
00000280: 3f88 a03c b171 0c3d 07ec a33c c026 0a3a
00000290: d952 81bc b216 c33c 90bd 3a3c 9084 25bc
000002a0: 01c1 6a3c c20f 123d dc98 3c3c dd6d 083d
000002b0: c7be 4e3c d02b b23c 5659 5a3b 5841 163d
000002c0: 312e 3dbc 3e13 e4bc 2e2c e0ba 26eb 183d
000002d0: 384c c83b a135 373c 7b14 e5bc e7d7 05bd
000002e0: c7c2 263c f5f5 55bc 4571 f93c 5552 08bd
000002f0: 0478 16bd 02e4 3c3d a8ed 38bd 911a 603d
00000300: be3a 2cbd 0a1c f33b 51d8 c7bb 0da9 38bd
00000310: 4097 7d3d 58e4 6a3d be8e 193c be93 a43c
00000320: 0875 06bd aa4d bdbc eb8d 42bd b886 adbc
00000330: 0ee4 cb3b 5495 cfbc de01 afbc 23a5 ec3c
00000340: b858 183d c86e 0f3d 5acd 0e3d 3603 0a3d
00000350: 075c 063d 449c 033d 7c36 d53b 32c9 6bba
00000360: 4fd8 fc3b 14d3 bebc 68bd a0bc 933a a03c
00000370: d561 e2bc d721 4fbc f523 86bb 35c6 cfbc
00000380: d17f 8cbc d773 353c d277 f33c 550e efbc
00000390: 59e7 893c 1179 bfbb a023 d63c 4e9e 933c
000003a0: cc0f 42bb 1b2f 85bb ac49 2f3d ec59 87bc
000003b0: 5b03 83bc e79a 74bc ebae abbc bab0 b4bc
000003c0: 3b8d 0ebd c5ff e5bc 9399 753b c01c 3c3c
000003d0: dff1 14bc 7176 3dbb e5ee d1bc 9c58 53bc
000003e0: c883 c7bc c269 2c3d 56fd 383b 6d17 c03b
000003f0: 3f1a 0a3b b73f bc3b b7a7 36bc 05f7 45bc
0.058147464 0.005296054 0.016911114 0.044729702 0.005640769 0.07114376 0.0042550163 -0.040282488
-0.0016957712 -0.019422792 0.018812403 -0.06496394 -0.03603825 -0.06110431 -0.013418138 0.017436365
-0.03980578 -0.0016629116 -0.018105434 0.054437436 0.004075593 0.036301423 -0.046569757 0.013755822
-0.01698994 0.00047184108 -0.0044987714 -0.013670066 -0.017437678 0.04305204 0.060830127 0.04514313
-0.0100544365 -0.06186252 -0.021727128 0.002040073 0.0023597816 -0.040919602 -0.033499587 0.052924946
-0.013236967 -0.025258543 0.012313992 -0.039381806 0.0059500835 -0.05279204 -0.0066554327 0.024206858
-0.022610731 0.04134489 0.012857815 -0.02670511 -0.030712267 0.04476709 -0.0058702733 0.018137585
0.040068425 -0.0261067 0.023581075 0.018991204 0.052808307 -0.016829984 0.015585582 -0.0215481
0.044892598 0.027783297 -0.036311746 0.009982099 -0.033488322 -0.011066933 0.001065626 0.021060994
-0.035648275 -0.03098957 -0.012862328 0.027114047 -0.02473442 0.0580326 0.06897081 -0.016787954
-0.009474084 0.033146143 0.05036985 0.0026992052 -0.013038842 0.049837492 -0.026001638 0.028697053
-0.026366374 -0.066586465 -0.013686391 -0.03224185 -0.012467538 0.018771298 0.025958942 0.038522486
-0.015339252 0.050320756 0.015876519 -0.0039197057 0.037570786 0.014508252 -0.0016348882 0.004918
-0.0034369382 -0.004192158 -0.0014794577 -0.011416648 -0.018747753 -0.0027964076 -0.01665307 -0.032525815
0.016312648 -0.021460783 0.055203352 0.03707634 0.010774407 0.054018527 -0.03586804 0.033068232
0.00348125 -0.025850425 0.013360966 -0.02037185 3.8790007e-05 -0.04830419 -0.013446201 -0.023389755
0.04682775 -0.012335283 0.017708575 -0.009624586 0.021419518 0.03966402 0.010217581 -0.024375048
0.0019101 0.04310312 0.017951513 -0.037801076 -0.008287752 -0.039908502 0.03340638 0.030894995
-0.03614968 -0.0072673503 -0.032895386 0.015158385 -0.0013477223 -0.020868462 0.016209273 -0.019112088
0.027623542 0.030472407 0.009026848 -0.019013207 -0.0062269936 0.056958158 0.055174045 -0.0030861087
0.019596217 0.034288112 0.020010008 0.00052700564 -0.015786575 0.023814533 0.011397734 -0.010102406
0.014328242 0.03565956 0.011511054 0.0333079 0.012618727 0.021749407 0.0033317409 0.03668341
-0.011546657 -0.027841207 -0.001710301 0.03733363 0.0061126016 0.01118222 -0.027963867 -0.032676604
0.0101782745 -0.013059129 0.030449519 -0.033281643 -0.03673555 0.046115883 -0.04514852 0.054712836
-0.04204821 0.007419114 -0.006098785 -0.045083094 0.06191182 0.05734667 0.009372411 0.02008998
-0.032826453 -0.023108322 -0.047498625 -0.021182403 0.0062222546 -0.02533976 -0.021363195 0.028887337
0.037193984 0.03501776 0.034863807 0.03369447 0.032802608 0.03213145 0.006506739 -0.0008994519
0.0077162157 -0.02329401 -0.019621566 0.01955918 -0.02763454 -0.012642345 -0.004093642 -0.025363067
-0.017150791 0.011074982 0.02972022 -0.029181639 0.016833948 -0.0058432897 0.026140034 0.018019821
-0.0029611466 -0.0040644533 0.04279487 -0.01652237 -0.015992811 -0.01492951 -0.02095743 -0.022056926
-0.034802657 -0.028076062 0.003747557 0.011481464 -0.00909087 -0.0028909708 -0.02562661 -0.012899544
-0.02435483 0.042093046 0.0028227172 0.0058621676 0.0021072773 0.0057449 -0.011148385 -0.01208282

bias f4 [64]
00000000: a67a 4dbd 080c 5c3b b648 e0bb 5ff6 6dbd
00000010: 2e5d 41bd fe99 81bd fb0c 203d 2950 76bd
00000020: cb8f 75bc 81b0 72bc 8e5c f4bd 390d 3fbd
00000030: b6a0 1b3d f4f2 55bd bd41 99bc 6083 dbbc
00000040: c637 803c d693 f5bc f1af 1ebd 01da d8bd
00000050: ac09 ecba de2a aabd 2cae 5cbc 1767 73bd
00000060: 23a6 c7bd 8f7d 2dbd 1705 a9bd 733f ebbc
00000070: a85f 95bd de97 b7bc 03b1 28bd 8353 87bd
00000080: ad3c 87ba dcde 6fbd f7d3 a4bb 10ae 943b
00000090: 6bf6 cabd 3b50 b8bd 3b8c 9abd e599 1cbd
000000a0: cb87 6cbd 62b8 6dbd fe83 96bd 70af 96bc
000000b0: 8dfe aabd cfa7 49bd d634 9dbd cd4d 58bd
000000c0: ef45 87bd 0a46 b0bc 8525 98bd fb5f 4fbc
000000d0: f975 93bd db10 bebc b5f7 36bc a257 5ebd
000000e0: bdee 39bd e5dd 093d ae1b 9cbd d827 83bd
000000f0: 0184 88bd ef6c 85bd 1acf efbb 03d1 bdbc
-0.050165795 0.0033576507 -0.0068446053 -0.058096286 -0.047208004 -0.063282 0.03907488 -0.06013504
-0.014987896 -0.01481259 -0.11931716 -0.04664347 0.037995063 -0.05223365 -0.018708104 -0.026796043
0.015651595 -0.02997772 -0.03874201 -0.10588456 -0.0018008254 -0.083089575 -0.01346926 -0.059424486
-0.09748485 -0.04235607 -0.08252924 -0.028716778 -0.072936356 -0.022411283 -0.041184437 -0.066077255
-0.0010317765 -0.058562145 -0.005030151 0.0045373514 -0.09910282 -0.08999678 -0.07546278 -0.038232703
-0.05774669 -0.05803717 -0.07349394 -0.018394202 -0.08349333 -0.0492323 -0.07676093 -0.05280857
-0.06605136 -0.021517772 -0.07429031 -0.012657161 -0.07200236 -0.023201397 -0.011167456 -0.054282792
-0.045393694 0.03365888 -0.07622467 -0.06404084 -0.06665803 -0.06514918 -0.0073183896 -0.023170954

weight f4 [64, 1024]
00000000: 273b 11bd 3c6c fbbb 1c3e 41bc 2855 e5bb
00000010: 8948 4dbd dcd5 0ebd 67ee e2bc 65be 59bd
00000020: ac1e 39bc a2c6 8bbc d51b 923c df81 ccbb
00000030: 886f e33c 9be5 363c 975c 453d 7ae0 593d
00000040: 8dca bc3c 3433 953c e0d7 613c 4aa4 253b
00000050: a3d1 cb3b 0744 be3c 0e50 b3bc d3df e2bb
00000060: 59a8 c43b 5345 69bc aac4 f13c af38 28bc
00000070: 8a2b fabc de0f 203c 4a6c dd3c 2870 5f3c
00000080: 66d3 bd3c 945c 0f3d 1460 c4bb 583b 963a
00000090: 9a63 ab3a 60c4 033d 31a5 83bc d95e 87bc
000000a0: f73d b5bc 9008 f3bc c5ea 92bd c8e0 b63b
000000b0: ea1c c33c 4fb7 2c3d cba9 1f3d e57e d2bc
000000c0: d636 9a3b 628a 9ebc 7306 c33c 16bc 983c
000000d0: 1de9 9abb 1be7 8e3b 6b91 383c da1e 65bc
000000e0: 1c5c 40bc 72c6 89ba 540e 35bd 21c4 163d
000000f0: 2e63 54bc cba2 86bb 7800 303c fb6d 073d
00000100: 6785 f93b 0779 043b 026d fabc ce1b a53c
00000110: 6cdd 193c f086 01bc 6e62 a5bc 066d 8abd
00000120: c27f 0bbc aa0d e73b a2a6 e13b fa48 babc
00000130: 1cec bf3c 1ae5 bcbc 6727 01bd 5d57 16ba
00000140: 3ddb 75bc e0de 913b a8f6 e7bb 9a00 883c
00000150: d4b5 22bd 6c7d e43c 8a83 cc3b 80c3 9dbb
00000160: 53dd 563c 9776 413d d7b9 6c3d 45d2 a23c
00000170: 0cd6 10bd db51 5dba 9768 c13c b9f3 d83c
00000180: a4db abbc d481 c73c 603b bc3c da9b a63c
00000190: 2471 d0bc 12a2 923c 3eba 013d 1829 8e3c
000001a0: bb24 d8bc 5fb7 323d e0b4 dcbc 53a4 f9bc
000001b0: 8ad5 04bc d4fc adbc f224 5fbc a85b 84bc
000001c0: 51ac 9e3a ec8e 453d 3fe3 7dbc 25ce a23c
000001d0: 23e9 a0bc 20fc 323b da02 d2bc a177 a0bc
000001e0: 590b 22bd 7f05 ebbc e0d9 2cba d00c 6fbb
000001f0: b63f fcbc efdb c8bc 832b 55bd 9e9f 59bc
00000200: 196c ee3a e542 e2bc 5ac6 39bc 1508 8abc
00000210: 104c 4bbb d625 d5bb 6a49 403c 9881 aebc
00000220: 616a 963c 4ef6 debb 0e39 f13c b436 e6bc
00000230: 6c0e b33c 7735 623d 2b67 89bb 209b c7bc
00000240: 053c 513d c3fb d2bc 2c2e c33c 312d 113d
00000250: 8ad1 a0bc 7e0c cc3c c36c 863c b233 f23b
00000260: de44 073c cd23 b73a db32 0f3d 2550 8cbc
00000270: d43b 0e3d 3e54 6abd 6863 c3bc 67b5 233c
00000280: 72c3 5d3c 332e 52bc 7dc4 20bc a1c6 5fb8
00000290: bded 92bc 499d b13c 8541 37bc 31fa 7dbb
000002a0: ab2d e63b b9a9 3fba fac7 fd3a 0e2a 08bc
000002b0: 020a bfbc 299c ffbc 2c52 9e3c 660d 843c
000002c0: 8930 99bc 2b17 e43c 4877 55bb 9fac 9c3c
000002d0: 0839 8a3c 16bb dd3b e423 d33a eb70 bdba
000002e0: b351 08bc 114f a03c ea51 2ebc f371 203b
000002f0: 3944 873c e2a3 e13c 129f adbc 4bdf 35bd
00000300: c3c8 443d be9d 663d 38f7 323c 4505 a8bc
00000310: 9bfe 8a3b a628 2dbd 8680 bd3a 1d18 e7bc
00000320: f249 8b3b 3919 103d dd8a b6bc 78e4 f53c
00000330: e0e2 01bc a4ba 953c 7905 1a3c 8099 9fbb
00000340: db54 c7bc 8920 8a3c d46c efbc 4763 00bd
00000350: 6b5f 8f3c 3c8d 1a3a 6ff8 db3c fe64 98bc
00000360: 12d4 80bc e145 0dbd 122a 01bb 46b4 eb3b
00000370: 30bc b3bc 01d4 d73c 3600 98bc 4d2a 893b
00000380: ecfa 1abd e1ef dbbc 8b57 e43b 276d 89bc
00000390: 4ea5 35bd dfb2 0a3c 3287 e6bc 1816 b33c
000003a0: 8e0f 30bb 1439 833c 9a23 20bd 533c 20bb
000003b0: 34ac 293c fb10 403d 2048 3b3d 3ef9 c2bb
000003c0: 8b09 c83b 395b 9d3c f475 0c3d 0b72 a23a
000003d0: bfc4 00bc eda3 c9bb 20a4 37bc bad8 253b
000003e0: 5c95 50bc 87ed c03c 1509 9e3c abfe f1bc
000003f0: 28bd d73c 627f 37bd e7c8 d8bb 3b2d bb3c
-0.035456803 -0.0076728147 -0.011794593 -0.006998677 -0.050118003 -0.03487192 -0.02770157 -0.05316009
-0.011298817 -0.017062489 0.017835537 -0.006241068 0.027763143 0.011163141 0.048184004 0.053192593
0.023045802 0.018212892 0.013784379 0.0025274926 0.006220059 0.023225797 -0.021888759 -0.0069236546
0.006001514 -0.01423772 0.029512722 -0.010267421 -0.03053834 0.009769408 0.027029175 0.01363758
0.023172092 0.0350004 -0.0059928987 0.0011461778 0.0013075948 0.0321697 -0.01606998 -0.01652472
-0.022124274 -0.029667169 -0.07173685 0.005580995 0.023817498 0.042167004 0.038980287 -0.025695274
0.004706244 -0.019353095 0.023806786 0.018644374 -0.0047274963 0.004361046 0.011265139 -0.013984406
-0.011740711 -0.0010511412 -0.044203117 0.036808137 -0.012963099 -0.004108762 0.010742299 0.03306387
0.0076147798 0.002021374 -0.030569557 0.02015486 0.00939117 -0.007905707 -0.020188536 -0.06759076
-0.008514347 0.0070511894 0.0068863193 -0.022739876 0.023428015 -0.023058463 -0.031531718 -0.0005735064
-0.015005884 0.0044516176 -0.0070789643 0.01660185 -0.039724186 0.027891837 0.0062412666 -0.004814565
0.013114291 0.047232237 0.05779442 0.019875655 -0.03536038 -0.00084426784 0.023609443 0.026483404
-0.020978756 0.024353899 0.022977531 0.020337988 -0.025444575 0.017899547 0.031671755 0.01735358
-0.026384702 0.043631908 -0.026941717 -0.030473864 -0.008107552 -0.021238722 -0.013619648 -0.016156986
0.0012105798 0.048232004 -0.015496074 0.019873688 -0.019642418 0.0027310923 -0.025636125 -0.019588294
-0.039561603 -0.028689144 -0.0006593745 -0.0036476143 -0.030792098 -0.024518935 -0.05204345 -0.013282685
0.0018190175 -0.027619788 -0.011338795 -0.016849557 -0.0031020679 -0.0065047545 0.011736253 -0.02130203
0.018361272 -0.006804264 0.029446151 -0.028102256 0.021857463 0.05522677 -0.004193207 -0.024365962
0.05108263 -0.025754815 0.023825727 0.03544349 -0.019631166 0.0249083 0.016409284 0.0073914165
0.008256165 0.0013972461 0.03496061 -0.01712806 0.034725025 -0.057209246 -0.023851112 0.00999198
0.013535367 -0.012828398 -0.009812471 -5.335233e-05 -0.017935628 0.021681445 -0.011185055 -0.0038753862
0.007024487 -0.00073113624 0.0019361966 -0.008310808 -0.023320202 -0.031202393 0.019326292 0.01611967
-0.018699901 0.027843079 -0.0032572318 0.01912528 0.016872898 0.006766687 0.0016108719 -0.0014453208
-0.00832026 0.019568952 -0.010639647 0.0024481982 0.016512023 0.027543966 -0.021194015 -0.044402402
0.048043024 0.05630278 0.010923199 -0.020510325 0.004241777 -0.042275093 0.0014457859 -0.02820974
0.0042507583 0.035180304 -0.022283012 0.030016169 -0.007927626 0.018277474 0.009400719 -0.0048705935
-0.024332454 0.016861217 -0.029226698 -0.03134468 0.017501554 0.00058956794 0.02685186 -0.018602844
-0.015726123 -0.03449047 -0.0019708914 0.007193121 -0.02194032 0.026346209 -0.018554788 0.004185951
-0.037836954 -0.026847782 0.0069684437 -0.01677568 -0.0443471 0.008465498 -0.028140638 0.021861121
-0.002686474 0.016018428 -0.039096452 -0.0024450019 0.010355998 0.046891194 0.04572308 -0.005950122
0.0061046532 0.019208537 0.034292176 0.0012393607 -0.007859408 -0.0061535747 -0.011208564 0.002530618
-0.012730923 0.023550762 0.01929144 -0.02954038 0.026335314 -0.044799216 -0.0066157463 0.022848716

bias f4 [64]
00000000: 6aa2 ab3c 2b78 04bd c4bd a43a 7f6a 483c
00000010: 6bf2 773d 554f 39bd 953e 3cbc e023 7bbb
00000020: 60c6 1abc dbee 213d 8990 ac3c d9a1 a13c
00000030: 97ae 103d 7f04 2c3b 5627 c83c 32da bb3a
00000040: 3ceb 453c 60cf 303d 24d5 993c 1dce b93c
00000050: 8fc1 00bd cc34 b93c 763e 313d 0103 ae3a
00000060: 6333 5c3d 39a7 d53c af91 633c 5874 ef3b
00000070: 8d65 d73b d19b 8e3c 08cd 5ebd b76f 0dbb
00000080: fd33 cc39 af94 343c 9f23 4fbd 8020 163d
00000090: bf45 1d3d bcbd 59bd 7f32 b73c e8d2 04bd
000000a0: 90b7 b2bc 02c5 aa3c 24bc 8cbb 65f4 f8bb
000000b0: 5750 5fbd 9948 d8bc 1657 67bc 7ac8 e13b
000000c0: 92ec 70b9 c717 043d 7511 fa3c 681a be3c
000000d0: 5ae3 57bb 84a6 06bc 87bf 263d 8948 6dbc
000000e0: a779 043d f676 be3c 7895 12bc 62f0 6dbc
000000f0: 672f 123d 0c04 4dbd cb83 823a 54b3 303c
0.020951468 -0.032341164 0.0012568762 0.012232422 0.060533922 -0.045241673 -0.01148953 -0.0038320944
-0.00944671 0.03953443 0.021065013 0.019730495 0.03532275 0.0026247797 0.02443282 0.0014331995
0.01208001 0.04316652 0.018778391 0.02268129 -0.03143459 0.022608183 0.043272458 0.0013276042
0.053759944 0.026080715 0.013889714 0.0073075704 0.006573385 0.017408283 -0.05439475 -0.002158148
0.00038948646 0.011021777 -0.05057108 0.03665209 0.038396593 -0.05315946 0.022362946 -0.0324277
-0.021816045 0.020845894 -0.004294889 -0.0075974935 -0.054519977 -0.026401805 -0.014119884 0.0068903537
-0.00022976313 0.03224924 0.030525902 0.02320595 -0.0032941909 -0.008218411 0.04071 -0.014482626
0.03234258 0.023250084 -0.008946769 -0.014522644 0.035689738 -0.050052688 0.000995749 0.010784943

weight f4 [10, 64]
00000000: 95a8 a2bd 0631 13be bce2 febd c78e 2dbe
00000010: 4294 b2bd ae83 8c3e 0219 ba3c c089 6ebe
00000020: fe68 843e f674 30be 8a32 983d c34d 3cbe
00000030: 396b c53d 08db 2e3d 4110 153e 0a53 943d
00000040: 10a1 6b3d 547e e1bc 6535 563e b72f 0c3e
00000050: 54b1 533e 2c2b 95be 5546 09be 7d01 0d3e
00000060: 97b6 3ebe 22f5 e3bd 768a 5ebd 6256 8e3d
00000070: 61d1 253e dd22 abbc 9abf 2a3e c045 973d
00000080: 7ba3 21be 9a02 07be e9b0 d43d c9ae 33bd
00000090: 6579 39be 2272 893e 5782 16be fd12 6fbe
000000a0: 241e 3dbd 79bf 9bbd 2991 283e c1c9 20be
000000b0: 16f9 e3bc 3199 293e 3f8c 67be e033 7c3d
000000c0: 6e8b 69be ec94 29be 6fcf 433e d03b 61bc
000000d0: e613 c03d fda9 4f3e e9da 34be ab21 223e
000000e0: 1359 01be b748 b63d 1d75 c13c 0b0f 713e
000000f0: 12fb b7bd b240 ed3c 102b 513e 1d6a 163e
00000100: 91b0 b23e 0dd4 943e b0c4 05be ab26 ca3d
00000110: d875 ed3d 79eb 48bc f786 f8bd 128c 02be
00000120: 502e ccbd acc3 353c 8cc7 73bd ab96 8ebc
00000130: 03fa a4be 38fa afbd 6fc0 5a3e d67a 80bd
00000140: cdda d33d 498c 27be bbf6 36be f8ca 3abe
00000150: 1c05 613d f536 b33d 8b79 90be 516c 42be
00000160: c6fc 49be 0c6a 02be 8045 48be b068 09be
00000170: ecde babd 2ce5 e3bd 53e8 e8bc 0bd8 9fbe
00000180: adb3 4b3d ddb4 643e 7980 713d 92bd 0abe
00000190: b716 893e 50dc 4c3c 0aa5 3dbd 68ce fabd
000001a0: 57a2 7f3e 5805 27bd 800d 733e 1c9e 803e
000001b0: 423f 173e 9531 a13e 3764 79be 3929 c43d
000001c0: ddfc 9e3e 2632 1bbe fb52 a83e df8b d53d
000001d0: bc33 3bbe 6d59 2bbd 6f70 12be 0ff7 cb3d
000001e0: 3d83 74bd 10aa 3bbc 07f2 48be f4b7 21bc
000001f0: 1163 2d3e 3216 edbd e7f5 6bbe ac33 70be
00000200: 1cbf 1abe 8fe3 013d 5f05 23bd 1228 81be
00000210: 12f0 013c a971 44be 94ec 4b3d fd8d d73c
00000220: ec7d f2bd 481c acbc 1ea3 80be 9d6b d8bb
00000230: e089 3a3e a006 37be 11d4 423e d170 5d3c
00000240: 73f5 1fbe 6ef5 2fbe ffe3 cf3d 485f 253e
00000250: aeaf f2bc 86c6 89be 2eac 033e 6860 313e
00000260: 11b1 b13d 0575 92bd d507 e63c 11b3 fc3d
00000270: 82ac efbd f278 753e 20d6 85be 8dea 26bd
00000280: d8d6 34be 4ab5 003d f219 b63c d924 533e
00000290: 70d0 66be 17d6 fc3c f739 943d 8c4d 433e
000002a0: 0a86 a3bd 38ea 6d3e fc82 043e 6690 60be
000002b0: ac7c 723e 877e 1ebe 725a 343d 2541 11be
000002c0: f8be 89be d7ae 433d 32db 49be 6e73 03bd
000002d0: 4d76 4bbe b793 4f3d 532e 2bbd 67d7 21be
000002e0: aa38 3d3e 4315 8a3d e6d8 1c3d 2657 663e
000002f0: 3b1f 323e c310 bd3c 2d70 613e 97c7 55bd
00000300: d7a2 1abc 038b 34be fed8 303e 953e c83d
00000310: 2081 483d 4860 bc3d 6eba 6ebd 0831 1b3e
00000320: 97b1 b63d 9f3c 94bd 2e6a edbd 35c1 b9bd
00000330: 9b9d c63d 5e7a febd 5077 a8bd bf02 97bd
00000340: 63e5 acbd 612a 653e df87 e9bd f1a7 353e
00000350: deeb 46be 656e e3bd 39e1 33be 9625 27be
00000360: 4a6c ed3c dda1 1c3e 1a6a 393e fe62 c8bc
00000370: b0fe 1c3d 1c5d 29be 66fb 17be a5fd 383d
00000380: 0ca3 263e b3a0 3bbe f19b 84be 3436 bf3c
00000390: 3958 3cbd 4978 0cbe 7001 643e fede 4a3e
000003a0: 8c7e ab3b 1655 41be 45ea e4bd 05bd 10bc
000003b0: 54c9 5ebc 2187 7a3d 4b42 0e3e ff21 223e
000003c0: 65cb fbbc f70d 15bd ab28 4e3d 7291 ffbd
000003d0: 3bcc ebbb b4f5 0fbe f4f3 253d 1e6e be3d
000003e0: ad05 993d 7ceb ebbd b31f f2bd d63c e73c
000003f0: ef96 87bd 5f54 9a3d 077a 0e3e 8813 d9bd
-0.07942311 -0.1437417 -0.1244559 -0.16948996 -0.08719684 0.27444214 0.022717003 -0.23294735
0.25861353 -0.17232117 0.074315146 -0.18389039 0.09639592 0.042689353 0.14556982 0.07242401
0.057526648 -0.027526058 0.20918806 0.13690077 0.20673114 -0.291345 -0.13405736 0.13770099
-0.1862434 -0.1113074 -0.054331265 0.0695007 0.16193153 -0.020890648 0.16674653 0.07386351
-0.15785019 -0.13184586 0.103853054 -0.04386786 -0.18112715 0.2684489 -0.14698158 -0.23347087
-0.046171322 -0.0760488 0.16461624 -0.15701963 -0.027828734 0.16562344 -0.22612093 0.06157291
-0.22807094 -0.16560715 0.19122098 -0.013747171 0.09378795 0.20279689 -0.17661633 0.15833156
-0.12631635 0.08900588 0.023615414 0.23540895 -0.08983435 0.028961513 0.20426583 0.14688917
0.34900334 0.29068032 -0.13063312 0.098706566 0.115947425 -0.012263172 -0.121351175 -0.12748745
-0.09969771 0.011094015 -0.059516475 -0.017405828 -0.32221994 -0.08592647 0.2136247 -0.06273429
0.10344467 -0.16362108 -0.17867558 -0.18241489 0.054936513 0.087507166 -0.2821773 -0.18986632
-0.19725332 -0.12735766 -0.19557762 -0.13418841 -0.0912455 -0.111276954 -0.028431093 -0.31219515
0.0497319 0.22334619 0.05896041 -0.13548878 0.26775143 0.0125036985 -0.04629997 -0.122464
0.24964271 -0.04077658 0.23735619 0.25120628 0.14770225 0.3148314 -0.24354635 0.09578175
0.31052294 -0.15155849 0.3287581 0.10427069 -0.18281454 -0.04183333 -0.14300703 0.09959232
-0.05969547 -0.01145412 -0.19623576 -0.009870518 0.16932322 -0.11576499 -0.23043023 -0.23457211
-0.15111965 0.031711157 -0.039800044 -0.25225884 0.007930772 -0.19183983 0.049786165 0.026312822
-0.11840424 -0.02100958 -0.2512445 -0.0066046254 0.18216658 -0.17873621 0.1902621 0.013515667
-0.15620975 -0.17183468 0.10150909 0.16149628 -0.029624786 -0.26909274 0.1285865 0.17321932
0.08676351 -0.07151226 0.028079906 0.12338842 -0.11702825 0.23971918 -0.26139927 -0.04075103
-0.17660081 0.03142289 0.022229169 0.20619525 -0.2254045 0.030863805 0.072376184 0.1907255
-0.0798455 0.23233879 0.12940592 -0.21930084 0.23680371 -0.15477954 0.044031568 -0.14185007
-0.2690351 0.047774162 -0.19712523 -0.032092504 -0.19869347 0.05067798 -0.041792225 -0.15804826
0.18478647 0.067423366 0.038292788 0.22494182 0.17394726 0.023079282 0.22015448 -0.052192297
-0.009438238 -0.17631154 0.17270276 0.097775616 0.04895127 0.09198052 -0.058283262 0.15155423
0.08920591 -0.07238125 -0.11592518 -0.090700544 0.096980296 -0.124256834 -0.08225882 -0.07373571
-0.084421895 0.22379448 -0.114028685 0.17739846 -0.19425914 -0.111050405 -0.17566384 -0.16322932
0.0289823 0.15296121 0.18106881 -0.024461266 0.038328826 -0.16539425 -0.14841995 0.04516377
0.16273135 -0.1832302 -0.25900224 0.023341276 -0.045982573 -0.1371776 0.22266173 0.19811627
0.0052335914 -0.18880114 -0.11177496 -0.008834128 -0.013597805 0.061164025 0.13892476 0.15833281
-0.030736635 -0.03639027 0.050331753 -0.12478913 -0.007195977 -0.14058572 0.040515855 0.09298347
0.07471786 -0.115195245 -0.118224524 0.028227251 -0.06620585 0.07535624 0.13913737 -0.105994284

bias f4 [10]
00000000: 9f13 5ebd 2042 cb3d e326 84bc 42ed a63d
00000010: fa2a 583e df82 36be ed11 3d3e c06f 1b3d
00000020: 79de 92bd 26e8 dcbd
-0.05421793 0.09924722 -0.016131824 0.08150722 0.21110144 -0.17823361 0.1846387 0.03794837
-0.071713395 -0.10786466
